name: "Amtrak_Dual"
# Texture data source
layer {
  name: "data_t"
  type: "Data"
  top: "data_t"
  top: "label_t"
  data_param {
    source: "data/amtrak/db_text_train_lmdb"
    source_map: "data/amtrak/split0-images-idx3-ubyte"
    source_map: "data/amtrak/split1-images-idx3-ubyte"
    source_map: "data/amtrak/split2-images-idx3-ubyte"
    source_map: "data/amtrak/split3-images-idx3-ubyte"
    source_map: "data/amtrak/split4-images-idx3-ubyte"
    backend: LMDB_FILE
    batch_size: 128
  }
  transform_param {
    scale: 0.00390625
    crop_size: 75
    mean_value: 96
    mirror: true
    mirror_v: true
  }
  include: { phase: TRAIN }
}
layer {
  name: "data_t"
  type: "Data"
  top: "data_t"
  top: "label_t"
  data_param {
    source: "data/amtrak/db_text_test_lmdb"
    source_map: "data/amtrak/split0-images-idx3-ubyte"
    source_map: "data/amtrak/split1-images-idx3-ubyte"
    source_map: "data/amtrak/split2-images-idx3-ubyte"
    source_map: "data/amtrak/split3-images-idx3-ubyte"
    source_map: "data/amtrak/split4-images-idx3-ubyte"
    backend: LMDB_FILE
    batch_size: 80
  }
  transform_param {
    scale: 0.00390625
    crop_size: 75
    mean_value: 96
    mirror: false
  }
  include: { phase: TEST }
}
# Fasteners data source
layer {
  name: "data_f"
  type: "Data"
  top: "data_f"
  top: "label_f"
  data_param {
    source: "data/amtrak/db_fast_train_lmdb"
    source_map: "data/amtrak/fast0-images-idx3-ubyte"
    source_map: "data/amtrak/fast1-images-idx3-ubyte"
    source_map: "data/amtrak/fast2-images-idx3-ubyte"
    source_map: "data/amtrak/fast3-images-idx3-ubyte"
    source_map: "data/amtrak/fast4-images-idx3-ubyte"
    backend: LMDB_FILE
    batch_size: 16
  }
  transform_param {
    scale: 0.00390625
    crop_size: 182
    mean_value: 96
    mirror: false
    mirror_v: false
  }
  include: { phase: TRAIN }
}
layer {
  name: "data_f"
  type: "Data"
  top: "data_f"
  top: "label_f"
  data_param {
    source: "data/amtrak/db_fast_test_lmdb"
    source_map: "data/amtrak/fast0-images-idx3-ubyte"
    source_map: "data/amtrak/fast1-images-idx3-ubyte"
    source_map: "data/amtrak/fast2-images-idx3-ubyte"
    source_map: "data/amtrak/fast3-images-idx3-ubyte"
    source_map: "data/amtrak/fast4-images-idx3-ubyte"
    backend: LMDB_FILE
    batch_size: 20
  }
  transform_param {
    scale: 0.00390625
    crop_size: 182
    mean_value: 96
    mirror: false
  }
  include: { phase: TEST }
}
# Texture network
layer {
  name: "conv1_t"
  type: "Convolution"
  bottom: "data_t"
  top: "conv1_t"
  param {
    name: "conv1_w"
    lr_mult: 1
    decay_mult: 1
  }
  param {
    name: "conv1_b"
    lr_mult: 2
    decay_mult: 0
  }
  convolution_param {
    num_output: 48
    kernel_size: 9
    stride: 2
    weight_filler {
      type: "gaussian"
      std: 0.01
    }
    bias_filler {
      type: "constant"
      value: 0
    }
  }
}
layer {
  name: "pool1_t"
  type: "Pooling"
  bottom: "conv1_t"
  top: "pool1_t"
  pooling_param {
    pool: MAX
    kernel_size: 3
    stride: 2
  }
}
layer {
  name: "norm1_t"
  type: "LRN"
  bottom: "pool1_t"
  top: "norm1_t"
  lrn_param {
    local_size: 5
    alpha: 0.001
    beta: 0.5
    norm_region: WITHIN_CHANNEL
  }
}
layer {
  name: "conv2_t"
  type: "Convolution"
  bottom: "norm1_t"
  top: "conv2_t"
  param {
    name: "conv2_w"
    lr_mult: 1
    decay_mult: 1
  }
  param {
    name: "conv2_b"
    lr_mult: 2
    decay_mult: 0
  }
  convolution_param {
    num_output: 64
    kernel_size: 5
    stride: 1
    weight_filler {
      type: "gaussian"
      std: 0.01
    }
    bias_filler {
      type: "constant"
      value: 0
    }
  }
}
layer {
  name: "relu2_t"
  type: "ReLU"
  bottom: "conv2_t"
  top: "conv2_t"
}
layer {
  name: "pool2_t"
  type: "Pooling"
  bottom: "conv2_t"
  top: "pool2_t"
  pooling_param {
    pool: MAX
    kernel_size: 3
    stride: 2
  }
}
layer {
  name: "conv3_t"
  type: "Convolution"
  bottom: "pool2_t"
  top: "conv3_t"
  param {
    name: "conv3_w"
    lr_mult: 1
    decay_mult: 1
  }
  param {
    name: "conv3_b"
    lr_mult: 2
    decay_mult: 0
  }
  convolution_param {
    num_output: 256
    kernel_size: 5
    weight_filler {
      type: "gaussian"
      std: 0.01
    }
    bias_filler {
      type: "constant"
      value: 0
    }
  }
}
layer {
  name: "drop3_t"
  type: "Dropout"
  bottom: "conv3_t"
  top: "conv3_t"
  dropout_param {
    dropout_ratio: 0.1
  }
}
layer {
  name: "relu3_t"
  type: "ReLU"
  bottom: "conv3_t"
  top: "conv3_t"
}
layer {
  name: "pool3_t"
  type: "Pooling"
  bottom: "conv3_t"
  top: "pool3_t"
  pooling_param {
    pool: MAX
    kernel_size: 3
    stride: 2
  }
}
layer {
  name: "ip4_t"
  type: "Convolution"
  bottom: "pool3_t"
  top: "ip4_t"
  param {
    lr_mult: 2
    decay_mult: 2
  }
  param {
    lr_mult: 4
    decay_mult: 0
  }
  convolution_param {
    num_output: 10
    kernel_size: 1
    weight_filler {
      type: "gaussian"
      std: 0.01
    }
    bias_filler {
      type: "constant"
      value: 0
    }
  }
}
layer {
  name: "accuracy_t"
  type: "Accuracy"
  bottom: "ip4_t"
  bottom: "label_t"
  top: "accuracy_t"
  include: { phase: TEST }
}
layer {
  name: "loss_t"
  type: "SoftmaxWithLoss"
  bottom: "ip4_t"
  bottom: "label_t"
  top: "loss_t"
}
# Fasteners network
layer {
  name: "conv1_f"
  type: "Convolution"
  bottom: "data_f"
  top: "conv1_f"
  param {
    name: "conv1_w"
    lr_mult: 1
    lr_pre_mult: 0.5
    decay_mult: 1
  }
  param {
    name: "conv1_b"
    lr_mult: 2
    lr_pre_mult: 0.5
    decay_mult: 0
  }
  convolution_param {
    num_output: 48
    kernel_size: 9
    stride: 2
    weight_filler {
      type: "gaussian"
      std: 0.01
    }
    bias_filler {
      type: "constant"
      value: 0
    }
  }
}
layer {
  name: "pool1_f"
  type: "Pooling"
  bottom: "conv1_f"
  top: "pool1_f"
  pooling_param {
    pool: MAX
    kernel_size: 3
    stride: 2
  }
}
layer {
  name: "norm1_f"
  type: "LRN"
  bottom: "pool1_f"
  top: "norm1_f"
  lrn_param {
    local_size: 5
    alpha: 0.001
    beta: 0.5
    norm_region: WITHIN_CHANNEL
  }
}
layer {
  name: "conv2_f"
  type: "Convolution"
  bottom: "norm1_f"
  top: "conv2_f"
  param {
    name: "conv2_w"
    lr_mult: 1
    lr_pre_mult: 0.5
    decay_mult: 1
  }
  param {
    name: "conv2_b"
    lr_mult: 2
    lr_pre_mult: 0.5
    decay_mult: 0
  }
  convolution_param {
    num_output: 64
    kernel_size: 5
    stride: 1
    weight_filler {
      type: "gaussian"
      std: 0.01
    }
    bias_filler {
      type: "constant"
      value: 0
    }
  }
}
layer {
  name: "relu2_f"
  type: "ReLU"
  bottom: "conv2_f"
  top: "conv2_f"
}
layer {
  name: "pool2_f"
  type: "Pooling"
  bottom: "conv2_f"
  top: "pool2_f"
  pooling_param {
    pool: MAX
    kernel_size: 3
    stride: 2
  }
}
layer {
  name: "conv3_f"
  type: "Convolution"
  bottom: "pool2_f"
  top: "conv3_f"
  param {
    name: "conv3_w"
    lr_mult: 1
    lr_pre_mult: 0.5
    decay_mult: 1
  }
  param {
    name: "conv3_b"
    lr_mult: 2
    lr_pre_mult: 0.5
    decay_mult: 0
  }
  convolution_param {
    num_output: 256
    kernel_size: 5
    weight_filler {
      type: "gaussian"
      std: 0.01
    }
    bias_filler {
      type: "constant"
      value: 0
    }
  }
}
layer {
  name: "relu3_f"
  type: "ReLU"
  bottom: "conv3_f"
  top: "conv3_f"
}
layer {
  name: "drop3_f"
  type: "Dropout"
  bottom: "conv3_f"
  top: "conv3_f"
  dropout_param {
    dropout_ratio: 0.1
  }
}
layer {
  name: "pool3_f"
  type: "Pooling"
  bottom: "conv3_f"
  top: "pool3_f"
  pooling_param {
    pool: MAX
    kernel_size: 3
    stride: 2
  }
}
layer {
  name: "conv4_f"
  type: "Convolution"
  bottom: "pool3_f"
  top: "conv4_f"
  param {
    name: "conv4_w"
    lr_mult: 1
    decay_mult: 10
  }
  param {
    name: "conv4_b"
    lr_mult: 2
    decay_mult: 0
  }
  convolution_param {
    num_output: 512
    kernel_size: 5
    weight_filler {
      type: "gaussian"
      std: 0.01
    }
    bias_filler {
      type: "constant"
      value: 0
    }
  }
}
layer {
  name: "relu4_f"
  type: "ReLU"
  bottom: "conv4_f"
  top: "conv4_f"
}
layer {
  name: "drop4_f"
  type: "Dropout"
  bottom: "conv4_f"
  top: "conv4_f"
  dropout_param {
    dropout_ratio: 0.2
  }
}
layer {
  name: "pool4_f"
  type: "Pooling"
  bottom: "conv4_f"
  top: "pool4_f"
  pooling_param {
    pool: MAX
    kernel_size: 3
    stride: 2
  }
}
layer {
  name: "ip5_f"
  type: "Convolution"
  bottom: "pool4_f"
  top: "ip5_f"
  param {
    lr_mult: 1
    decay_mult: 2
  }
  param {
    lr_mult: 2
    decay_mult: 0
  }
  convolution_param {
    num_output: 6
    kernel_size: 1
    weight_filler {
      type: "gaussian"
      std: 0.01
    }
    bias_filler {
      type: "constant"
      value: 0
    }
  }
}
layer {
  name: "accuracy_f"
  type: "Accuracy"
  bottom: "ip5_f"
  bottom: "label_f"
  top: "accuracy_f"
  include: { phase: TEST }
}
layer {
  name: "loss_f"
  type: "SoftmaxWithLoss"
  bottom: "ip5_f"
  bottom: "label_f"
  top: "loss_f"
}
# Task fastVsBg, class 00
layer {
  name: "data_fastVsBg_00"
  type: "Data"
  top: "data_fastVsBg_00"
  top: "label_fastVsBg_00"
  data_param {
    source: "data/amtrak/db_fastVsBg_00_train"
    source_map: "data/amtrak/fastVsBg_0_00-images-idx3-ubyte"
    source_map: "data/amtrak/fastVsBg_1_00-images-idx3-ubyte"
    source_map: "data/amtrak/fastVsBg_2_00-images-idx3-ubyte"
    source_map: "data/amtrak/fastVsBg_3_00-images-idx3-ubyte"
    source_map: "data/amtrak/fastVsBg_4_00-images-idx3-ubyte"
    backend: LMDB_FILE
    batch_size: 1
  }
  transform_param {
    scale: 0.00390625
    crop_size: 182
    mean_value: 96
    mirror: false
    mirror_v: false
  }
  include: { phase: TRAIN }
}
layer {
  name: "data_fastVsBg_00"
  type: "Data"
  top: "data_fastVsBg_00"
  top: "label_fastVsBg_00"
  data_param {
    source: "data/amtrak/db_fastVsBg_00_test"
    source_map: "data/amtrak/fastVsBg_0_00-images-idx3-ubyte"
    source_map: "data/amtrak/fastVsBg_1_00-images-idx3-ubyte"
    source_map: "data/amtrak/fastVsBg_2_00-images-idx3-ubyte"
    source_map: "data/amtrak/fastVsBg_3_00-images-idx3-ubyte"
    source_map: "data/amtrak/fastVsBg_4_00-images-idx3-ubyte"
    backend: LMDB_FILE
    batch_size: 2
  }
  transform_param {
    scale: 0.00390625
    crop_size: 182
    mean_value: 96
    mirror: false
  }
  include: { phase: TEST }
}
layer {
  name: "conv1_fastVsBg_00"
  type: "Convolution"
  bottom: "data_fastVsBg_00"
  top: "conv1_fastVsBg_00"
  param {
    name: "conv1_w"
    lr_mult: 1
    lr_pre_mult: 0.01
    decay_mult: 1
  }
  param {
    name: "conv1_b"
    lr_mult: 2
    lr_pre_mult: 0.01
    decay_mult: 0
  }
  convolution_param {
    num_output: 48
    kernel_size: 9
    stride: 2
    weight_filler {
      type: "gaussian"
      std: 0.01
    }
    bias_filler {
      type: "constant"
      value: 0
    }
  }
}
layer {
  name: "pool1_fastVsBg_00"
  type: "Pooling"
  bottom: "conv1_fastVsBg_00"
  top: "pool1_fastVsBg_00"
  pooling_param {
    pool: MAX
    kernel_size: 3
    stride: 2
  }
}
layer {
  name: "norm1_fastVsBg_00"
  type: "LRN"
  bottom: "pool1_fastVsBg_00"
  top: "norm1_fastVsBg_00"
  lrn_param {
    local_size: 5
    alpha: 0.001
    beta: 0.5
    norm_region: WITHIN_CHANNEL
  }
}
layer {
  name: "conv2_fastVsBg_00"
  type: "Convolution"
  bottom: "norm1_fastVsBg_00"
  top: "conv2_fastVsBg_00"
  param {
    name: "conv2_w"
    lr_mult: 1
    lr_pre_mult: 0.01
    decay_mult: 1
  }
  param {
    name: "conv2_b"
    lr_mult: 2
    lr_pre_mult: 0.01
    decay_mult: 0
  }
  convolution_param {
    num_output: 64
    kernel_size: 5
    stride: 1
    weight_filler {
      type: "gaussian"
      std: 0.01
    }
    bias_filler {
      type: "constant"
      value: 0
    }
  }
}
layer {
  name: "relu2_fastVsBg_00"
  type: "ReLU"
  bottom: "conv2_fastVsBg_00"
  top: "conv2_fastVsBg_00"
}
layer {
  name: "pool2_fastVsBg_00"
  type: "Pooling"
  bottom: "conv2_fastVsBg_00"
  top: "pool2_fastVsBg_00"
  pooling_param {
    pool: MAX
    kernel_size: 3
    stride: 2
  }
}
layer {
  name: "conv3_fastVsBg_00"
  type: "Convolution"
  bottom: "pool2_fastVsBg_00"
  top: "conv3_fastVsBg_00"
  param {
    name: "conv3_w"
    lr_mult: 1
    lr_pre_mult: 0.01
    decay_mult: 1
  }
  param {
    name: "conv3_b"
    lr_mult: 2
    lr_pre_mult: 0.01
    decay_mult: 0
  }
  convolution_param {
    num_output: 256
    kernel_size: 5
    weight_filler {
      type: "gaussian"
      std: 0.01
    }
    bias_filler {
      type: "constant"
      value: 0
    }
  }
}
layer {
  name: "relu3_fastVsBg_00"
  type: "ReLU"
  bottom: "conv3_fastVsBg_00"
  top: "conv3_fastVsBg_00"
}
layer {
  name: "drop3_fastVsBg_00"
  type: "Dropout"
  bottom: "conv3_fastVsBg_00"
  top: "conv3_fastVsBg_00"
  dropout_param {
    dropout_ratio: 0.1
  }
}
layer {
  name: "pool3_fastVsBg_00"
  type: "Pooling"
  bottom: "conv3_fastVsBg_00"
  top: "pool3_fastVsBg_00"
  pooling_param {
    pool: MAX
    kernel_size: 3
    stride: 2
  }
}
layer {
  name: "conv4_fastVsBg_00"
  type: "Convolution"
  bottom: "pool3_fastVsBg_00"
  top: "conv4_fastVsBg_00"
  propagate_down: false
  param {
    name: "conv4_w"
    lr_mult: 1
    lr_pre_mult: 0.02
    decay_mult: 10
  }
  param {
    name: "conv4_b"
    lr_mult: 2
    lr_pre_mult: 0.02
    decay_mult: 0
  }
  convolution_param {
    num_output: 512
    kernel_size: 5
    weight_filler {
      type: "gaussian"
      std: 0.01
    }
    bias_filler {
      type: "constant"
      value: 0
    }
  }
}
layer {
  name: "relu4_fastVsBg_00"
  type: "ReLU"
  bottom: "conv4_fastVsBg_00"
  top: "conv4_fastVsBg_00"
}
layer {
  name: "drop4_fastVsBg_00"
  type: "Dropout"
  bottom: "conv4_fastVsBg_00"
  top: "conv4_fastVsBg_00"
  dropout_param {
    dropout_ratio: 0.2
  }
}
layer {
  name: "pool4_fastVsBg_00"
  type: "Pooling"
  bottom: "conv4_fastVsBg_00"
  top: "pool4_fastVsBg_00"
  pooling_param {
    pool: MAX
    kernel_size: 3
    stride: 2
  }
}
layer {
  name: "ip5_fastVsBg_00"
  type: "Convolution"
  bottom: "pool4_fastVsBg_00"
  top: "ip5_fastVsBg_00"
  param {
    name: "ip5_fastVsBg_00_w"
    lr_mult: 0.1
    decay_mult: 1000
  }
  param {
    name: "ip5_fastVsBg_00_b"
    lr_mult: 0.2
    decay_mult: 0
  }
  convolution_param {
    num_output: 2
    kernel_size: 1
    weight_filler {
      type: "gaussian"
      std: 0.01
    }
    bias_filler {
      type: "constant"
      value: 0
    }
  }
}
layer {
  name: "accuracy_fastVsBg_00"
  type: "Accuracy"
  bottom: "ip5_fastVsBg_00"
  bottom: "label_fastVsBg_00"
  top: "accuracy_fastVsBg_00"
  include: { phase: TEST }
}
layer {
  name: "loss_fastVsBg_00"
  type: "HingeLoss"
  bottom: "ip5_fastVsBg_00"
  bottom: "label_fastVsBg_00"
#  top: "loss_fastVsBg_00"
}

# Task fastVsBg, class 01
layer {
  name: "data_fastVsBg_01"
  type: "Data"
  top: "data_fastVsBg_01"
  top: "label_fastVsBg_01"
  data_param {
    source: "data/amtrak/db_fastVsBg_01_train"
    source_map: "data/amtrak/fastVsBg_0_01-images-idx3-ubyte"
    source_map: "data/amtrak/fastVsBg_1_01-images-idx3-ubyte"
    source_map: "data/amtrak/fastVsBg_2_01-images-idx3-ubyte"
    source_map: "data/amtrak/fastVsBg_3_01-images-idx3-ubyte"
    source_map: "data/amtrak/fastVsBg_4_01-images-idx3-ubyte"
    backend: LMDB_FILE
    batch_size: 1
  }
  transform_param {
    scale: 0.00390625
    crop_size: 182
    mean_value: 96
    mirror: false
    mirror_v: false
  }
  include: { phase: TRAIN }
}
layer {
  name: "data_fastVsBg_01"
  type: "Data"
  top: "data_fastVsBg_01"
  top: "label_fastVsBg_01"
  data_param {
    source: "data/amtrak/db_fastVsBg_01_test"
    source_map: "data/amtrak/fastVsBg_0_01-images-idx3-ubyte"
    source_map: "data/amtrak/fastVsBg_1_01-images-idx3-ubyte"
    source_map: "data/amtrak/fastVsBg_2_01-images-idx3-ubyte"
    source_map: "data/amtrak/fastVsBg_3_01-images-idx3-ubyte"
    source_map: "data/amtrak/fastVsBg_4_01-images-idx3-ubyte"
    backend: LMDB_FILE
    batch_size: 2
  }
  transform_param {
    scale: 0.00390625
    crop_size: 182
    mean_value: 96
    mirror: false
  }
  include: { phase: TEST }
}
layer {
  name: "conv1_fastVsBg_01"
  type: "Convolution"
  bottom: "data_fastVsBg_01"
  top: "conv1_fastVsBg_01"
  param {
    name: "conv1_w"
    lr_mult: 1
    lr_pre_mult: 0.01
    decay_mult: 1
  }
  param {
    name: "conv1_b"
    lr_mult: 2
    lr_pre_mult: 0.01
    decay_mult: 0
  }
  convolution_param {
    num_output: 48
    kernel_size: 9
    stride: 2
    weight_filler {
      type: "gaussian"
      std: 0.01
    }
    bias_filler {
      type: "constant"
      value: 0
    }
  }
}
layer {
  name: "pool1_fastVsBg_01"
  type: "Pooling"
  bottom: "conv1_fastVsBg_01"
  top: "pool1_fastVsBg_01"
  pooling_param {
    pool: MAX
    kernel_size: 3
    stride: 2
  }
}
layer {
  name: "norm1_fastVsBg_01"
  type: "LRN"
  bottom: "pool1_fastVsBg_01"
  top: "norm1_fastVsBg_01"
  lrn_param {
    local_size: 5
    alpha: 0.001
    beta: 0.5
    norm_region: WITHIN_CHANNEL
  }
}
layer {
  name: "conv2_fastVsBg_01"
  type: "Convolution"
  bottom: "norm1_fastVsBg_01"
  top: "conv2_fastVsBg_01"
  param {
    name: "conv2_w"
    lr_mult: 1
    lr_pre_mult: 0.01
    decay_mult: 1
  }
  param {
    name: "conv2_b"
    lr_mult: 2
    lr_pre_mult: 0.01
    decay_mult: 0
  }
  convolution_param {
    num_output: 64
    kernel_size: 5
    stride: 1
    weight_filler {
      type: "gaussian"
      std: 0.01
    }
    bias_filler {
      type: "constant"
      value: 0
    }
  }
}
layer {
  name: "relu2_fastVsBg_01"
  type: "ReLU"
  bottom: "conv2_fastVsBg_01"
  top: "conv2_fastVsBg_01"
}
layer {
  name: "pool2_fastVsBg_01"
  type: "Pooling"
  bottom: "conv2_fastVsBg_01"
  top: "pool2_fastVsBg_01"
  pooling_param {
    pool: MAX
    kernel_size: 3
    stride: 2
  }
}
layer {
  name: "conv3_fastVsBg_01"
  type: "Convolution"
  bottom: "pool2_fastVsBg_01"
  top: "conv3_fastVsBg_01"
  param {
    name: "conv3_w"
    lr_mult: 1
    lr_pre_mult: 0.01
    decay_mult: 1
  }
  param {
    name: "conv3_b"
    lr_mult: 2
    lr_pre_mult: 0.01
    decay_mult: 0
  }
  convolution_param {
    num_output: 256
    kernel_size: 5
    weight_filler {
      type: "gaussian"
      std: 0.01
    }
    bias_filler {
      type: "constant"
      value: 0
    }
  }
}
layer {
  name: "relu3_fastVsBg_01"
  type: "ReLU"
  bottom: "conv3_fastVsBg_01"
  top: "conv3_fastVsBg_01"
}
layer {
  name: "drop3_fastVsBg_01"
  type: "Dropout"
  bottom: "conv3_fastVsBg_01"
  top: "conv3_fastVsBg_01"
  dropout_param {
    dropout_ratio: 0.1
  }
}
layer {
  name: "pool3_fastVsBg_01"
  type: "Pooling"
  bottom: "conv3_fastVsBg_01"
  top: "pool3_fastVsBg_01"
  pooling_param {
    pool: MAX
    kernel_size: 3
    stride: 2
  }
}
layer {
  name: "conv4_fastVsBg_01"
  type: "Convolution"
  bottom: "pool3_fastVsBg_01"
  top: "conv4_fastVsBg_01"
  propagate_down: false
  param {
    name: "conv4_w"
    lr_mult: 1
    lr_pre_mult: 0.02
    decay_mult: 10
  }
  param {
    name: "conv4_b"
    lr_mult: 2
    lr_pre_mult: 0.02
    decay_mult: 0
  }
  convolution_param {
    num_output: 512
    kernel_size: 5
    weight_filler {
      type: "gaussian"
      std: 0.01
    }
    bias_filler {
      type: "constant"
      value: 0
    }
  }
}
layer {
  name: "relu4_fastVsBg_01"
  type: "ReLU"
  bottom: "conv4_fastVsBg_01"
  top: "conv4_fastVsBg_01"
}
layer {
  name: "drop4_fastVsBg_01"
  type: "Dropout"
  bottom: "conv4_fastVsBg_01"
  top: "conv4_fastVsBg_01"
  dropout_param {
    dropout_ratio: 0.2
  }
}
layer {
  name: "pool4_fastVsBg_01"
  type: "Pooling"
  bottom: "conv4_fastVsBg_01"
  top: "pool4_fastVsBg_01"
  pooling_param {
    pool: MAX
    kernel_size: 3
    stride: 2
  }
}
layer {
  name: "ip5_fastVsBg_01"
  type: "Convolution"
  bottom: "pool4_fastVsBg_01"
  top: "ip5_fastVsBg_01"
  param {
    name: "ip5_fastVsBg_01_w"
    lr_mult: 0.1
    decay_mult: 1000
  }
  param {
    name: "ip5_fastVsBg_01_b"
    lr_mult: 0.2
    decay_mult: 0
  }
  convolution_param {
    num_output: 2
    kernel_size: 1
    weight_filler {
      type: "gaussian"
      std: 0.01
    }
    bias_filler {
      type: "constant"
      value: 0
    }
  }
}
layer {
  name: "accuracy_fastVsBg_01"
  type: "Accuracy"
  bottom: "ip5_fastVsBg_01"
  bottom: "label_fastVsBg_01"
  top: "accuracy_fastVsBg_01"
  include: { phase: TEST }
}
layer {
  name: "loss_fastVsBg_01"
  type: "HingeLoss"
  bottom: "ip5_fastVsBg_01"
  bottom: "label_fastVsBg_01"
#  top: "loss_fastVsBg_01"
}

# Task fastVsBg, class 02
layer {
  name: "data_fastVsBg_02"
  type: "Data"
  top: "data_fastVsBg_02"
  top: "label_fastVsBg_02"
  data_param {
    source: "data/amtrak/db_fastVsBg_02_train"
    source_map: "data/amtrak/fastVsBg_0_02-images-idx3-ubyte"
    source_map: "data/amtrak/fastVsBg_1_02-images-idx3-ubyte"
    source_map: "data/amtrak/fastVsBg_2_02-images-idx3-ubyte"
    source_map: "data/amtrak/fastVsBg_3_02-images-idx3-ubyte"
    source_map: "data/amtrak/fastVsBg_4_02-images-idx3-ubyte"
    backend: LMDB_FILE
    batch_size: 1
  }
  transform_param {
    scale: 0.00390625
    crop_size: 182
    mean_value: 96
    mirror: false
    mirror_v: false
  }
  include: { phase: TRAIN }
}
layer {
  name: "data_fastVsBg_02"
  type: "Data"
  top: "data_fastVsBg_02"
  top: "label_fastVsBg_02"
  data_param {
    source: "data/amtrak/db_fastVsBg_02_test"
    source_map: "data/amtrak/fastVsBg_0_02-images-idx3-ubyte"
    source_map: "data/amtrak/fastVsBg_1_02-images-idx3-ubyte"
    source_map: "data/amtrak/fastVsBg_2_02-images-idx3-ubyte"
    source_map: "data/amtrak/fastVsBg_3_02-images-idx3-ubyte"
    source_map: "data/amtrak/fastVsBg_4_02-images-idx3-ubyte"
    backend: LMDB_FILE
    batch_size: 2
  }
  transform_param {
    scale: 0.00390625
    crop_size: 182
    mean_value: 96
    mirror: false
  }
  include: { phase: TEST }
}
layer {
  name: "conv1_fastVsBg_02"
  type: "Convolution"
  bottom: "data_fastVsBg_02"
  top: "conv1_fastVsBg_02"
  param {
    name: "conv1_w"
    lr_mult: 1
    lr_pre_mult: 0.01
    decay_mult: 1
  }
  param {
    name: "conv1_b"
    lr_mult: 2
    lr_pre_mult: 0.01
    decay_mult: 0
  }
  convolution_param {
    num_output: 48
    kernel_size: 9
    stride: 2
    weight_filler {
      type: "gaussian"
      std: 0.01
    }
    bias_filler {
      type: "constant"
      value: 0
    }
  }
}
layer {
  name: "pool1_fastVsBg_02"
  type: "Pooling"
  bottom: "conv1_fastVsBg_02"
  top: "pool1_fastVsBg_02"
  pooling_param {
    pool: MAX
    kernel_size: 3
    stride: 2
  }
}
layer {
  name: "norm1_fastVsBg_02"
  type: "LRN"
  bottom: "pool1_fastVsBg_02"
  top: "norm1_fastVsBg_02"
  lrn_param {
    local_size: 5
    alpha: 0.001
    beta: 0.5
    norm_region: WITHIN_CHANNEL
  }
}
layer {
  name: "conv2_fastVsBg_02"
  type: "Convolution"
  bottom: "norm1_fastVsBg_02"
  top: "conv2_fastVsBg_02"
  param {
    name: "conv2_w"
    lr_mult: 1
    lr_pre_mult: 0.01
    decay_mult: 1
  }
  param {
    name: "conv2_b"
    lr_mult: 2
    lr_pre_mult: 0.01
    decay_mult: 0
  }
  convolution_param {
    num_output: 64
    kernel_size: 5
    stride: 1
    weight_filler {
      type: "gaussian"
      std: 0.01
    }
    bias_filler {
      type: "constant"
      value: 0
    }
  }
}
layer {
  name: "relu2_fastVsBg_02"
  type: "ReLU"
  bottom: "conv2_fastVsBg_02"
  top: "conv2_fastVsBg_02"
}
layer {
  name: "pool2_fastVsBg_02"
  type: "Pooling"
  bottom: "conv2_fastVsBg_02"
  top: "pool2_fastVsBg_02"
  pooling_param {
    pool: MAX
    kernel_size: 3
    stride: 2
  }
}
layer {
  name: "conv3_fastVsBg_02"
  type: "Convolution"
  bottom: "pool2_fastVsBg_02"
  top: "conv3_fastVsBg_02"
  param {
    name: "conv3_w"
    lr_mult: 1
    lr_pre_mult: 0.01
    decay_mult: 1
  }
  param {
    name: "conv3_b"
    lr_mult: 2
    lr_pre_mult: 0.01
    decay_mult: 0
  }
  convolution_param {
    num_output: 256
    kernel_size: 5
    weight_filler {
      type: "gaussian"
      std: 0.01
    }
    bias_filler {
      type: "constant"
      value: 0
    }
  }
}
layer {
  name: "relu3_fastVsBg_02"
  type: "ReLU"
  bottom: "conv3_fastVsBg_02"
  top: "conv3_fastVsBg_02"
}
layer {
  name: "drop3_fastVsBg_02"
  type: "Dropout"
  bottom: "conv3_fastVsBg_02"
  top: "conv3_fastVsBg_02"
  dropout_param {
    dropout_ratio: 0.1
  }
}
layer {
  name: "pool3_fastVsBg_02"
  type: "Pooling"
  bottom: "conv3_fastVsBg_02"
  top: "pool3_fastVsBg_02"
  pooling_param {
    pool: MAX
    kernel_size: 3
    stride: 2
  }
}
layer {
  name: "conv4_fastVsBg_02"
  type: "Convolution"
  bottom: "pool3_fastVsBg_02"
  top: "conv4_fastVsBg_02"
  propagate_down: false
  param {
    name: "conv4_w"
    lr_mult: 1
    lr_pre_mult: 0.02
    decay_mult: 10
  }
  param {
    name: "conv4_b"
    lr_mult: 2
    lr_pre_mult: 0.02
    decay_mult: 0
  }
  convolution_param {
    num_output: 512
    kernel_size: 5
    weight_filler {
      type: "gaussian"
      std: 0.01
    }
    bias_filler {
      type: "constant"
      value: 0
    }
  }
}
layer {
  name: "relu4_fastVsBg_02"
  type: "ReLU"
  bottom: "conv4_fastVsBg_02"
  top: "conv4_fastVsBg_02"
}
layer {
  name: "drop4_fastVsBg_02"
  type: "Dropout"
  bottom: "conv4_fastVsBg_02"
  top: "conv4_fastVsBg_02"
  dropout_param {
    dropout_ratio: 0.2
  }
}
layer {
  name: "pool4_fastVsBg_02"
  type: "Pooling"
  bottom: "conv4_fastVsBg_02"
  top: "pool4_fastVsBg_02"
  pooling_param {
    pool: MAX
    kernel_size: 3
    stride: 2
  }
}
layer {
  name: "ip5_fastVsBg_02"
  type: "Convolution"
  bottom: "pool4_fastVsBg_02"
  top: "ip5_fastVsBg_02"
  param {
    name: "ip5_fastVsBg_02_w"
    lr_mult: 0.1
    decay_mult: 1000
  }
  param {
    name: "ip5_fastVsBg_02_b"
    lr_mult: 0.2
    decay_mult: 0
  }
  convolution_param {
    num_output: 2
    kernel_size: 1
    weight_filler {
      type: "gaussian"
      std: 0.01
    }
    bias_filler {
      type: "constant"
      value: 0
    }
  }
}
layer {
  name: "accuracy_fastVsBg_02"
  type: "Accuracy"
  bottom: "ip5_fastVsBg_02"
  bottom: "label_fastVsBg_02"
  top: "accuracy_fastVsBg_02"
  include: { phase: TEST }
}
layer {
  name: "loss_fastVsBg_02"
  type: "HingeLoss"
  bottom: "ip5_fastVsBg_02"
  bottom: "label_fastVsBg_02"
#  top: "loss_fastVsBg_02"
}

# Task fastVsBg, class 03
layer {
  name: "data_fastVsBg_03"
  type: "Data"
  top: "data_fastVsBg_03"
  top: "label_fastVsBg_03"
  data_param {
    source: "data/amtrak/db_fastVsBg_03_train"
    source_map: "data/amtrak/fastVsBg_0_03-images-idx3-ubyte"
    source_map: "data/amtrak/fastVsBg_1_03-images-idx3-ubyte"
    source_map: "data/amtrak/fastVsBg_2_03-images-idx3-ubyte"
    source_map: "data/amtrak/fastVsBg_3_03-images-idx3-ubyte"
    source_map: "data/amtrak/fastVsBg_4_03-images-idx3-ubyte"
    backend: LMDB_FILE
    batch_size: 1
  }
  transform_param {
    scale: 0.00390625
    crop_size: 182
    mean_value: 96
    mirror: false
    mirror_v: false
  }
  include: { phase: TRAIN }
}
layer {
  name: "data_fastVsBg_03"
  type: "Data"
  top: "data_fastVsBg_03"
  top: "label_fastVsBg_03"
  data_param {
    source: "data/amtrak/db_fastVsBg_03_test"
    source_map: "data/amtrak/fastVsBg_0_03-images-idx3-ubyte"
    source_map: "data/amtrak/fastVsBg_1_03-images-idx3-ubyte"
    source_map: "data/amtrak/fastVsBg_2_03-images-idx3-ubyte"
    source_map: "data/amtrak/fastVsBg_3_03-images-idx3-ubyte"
    source_map: "data/amtrak/fastVsBg_4_03-images-idx3-ubyte"
    backend: LMDB_FILE
    batch_size: 2
  }
  transform_param {
    scale: 0.00390625
    crop_size: 182
    mean_value: 96
    mirror: false
  }
  include: { phase: TEST }
}
layer {
  name: "conv1_fastVsBg_03"
  type: "Convolution"
  bottom: "data_fastVsBg_03"
  top: "conv1_fastVsBg_03"
  param {
    name: "conv1_w"
    lr_mult: 1
    lr_pre_mult: 0.01
    decay_mult: 1
  }
  param {
    name: "conv1_b"
    lr_mult: 2
    lr_pre_mult: 0.01
    decay_mult: 0
  }
  convolution_param {
    num_output: 48
    kernel_size: 9
    stride: 2
    weight_filler {
      type: "gaussian"
      std: 0.01
    }
    bias_filler {
      type: "constant"
      value: 0
    }
  }
}
layer {
  name: "pool1_fastVsBg_03"
  type: "Pooling"
  bottom: "conv1_fastVsBg_03"
  top: "pool1_fastVsBg_03"
  pooling_param {
    pool: MAX
    kernel_size: 3
    stride: 2
  }
}
layer {
  name: "norm1_fastVsBg_03"
  type: "LRN"
  bottom: "pool1_fastVsBg_03"
  top: "norm1_fastVsBg_03"
  lrn_param {
    local_size: 5
    alpha: 0.001
    beta: 0.5
    norm_region: WITHIN_CHANNEL
  }
}
layer {
  name: "conv2_fastVsBg_03"
  type: "Convolution"
  bottom: "norm1_fastVsBg_03"
  top: "conv2_fastVsBg_03"
  param {
    name: "conv2_w"
    lr_mult: 1
    lr_pre_mult: 0.01
    decay_mult: 1
  }
  param {
    name: "conv2_b"
    lr_mult: 2
    lr_pre_mult: 0.01
    decay_mult: 0
  }
  convolution_param {
    num_output: 64
    kernel_size: 5
    stride: 1
    weight_filler {
      type: "gaussian"
      std: 0.01
    }
    bias_filler {
      type: "constant"
      value: 0
    }
  }
}
layer {
  name: "relu2_fastVsBg_03"
  type: "ReLU"
  bottom: "conv2_fastVsBg_03"
  top: "conv2_fastVsBg_03"
}
layer {
  name: "pool2_fastVsBg_03"
  type: "Pooling"
  bottom: "conv2_fastVsBg_03"
  top: "pool2_fastVsBg_03"
  pooling_param {
    pool: MAX
    kernel_size: 3
    stride: 2
  }
}
layer {
  name: "conv3_fastVsBg_03"
  type: "Convolution"
  bottom: "pool2_fastVsBg_03"
  top: "conv3_fastVsBg_03"
  param {
    name: "conv3_w"
    lr_mult: 1
    lr_pre_mult: 0.01
    decay_mult: 1
  }
  param {
    name: "conv3_b"
    lr_mult: 2
    lr_pre_mult: 0.01
    decay_mult: 0
  }
  convolution_param {
    num_output: 256
    kernel_size: 5
    weight_filler {
      type: "gaussian"
      std: 0.01
    }
    bias_filler {
      type: "constant"
      value: 0
    }
  }
}
layer {
  name: "relu3_fastVsBg_03"
  type: "ReLU"
  bottom: "conv3_fastVsBg_03"
  top: "conv3_fastVsBg_03"
}
layer {
  name: "drop3_fastVsBg_03"
  type: "Dropout"
  bottom: "conv3_fastVsBg_03"
  top: "conv3_fastVsBg_03"
  dropout_param {
    dropout_ratio: 0.1
  }
}
layer {
  name: "pool3_fastVsBg_03"
  type: "Pooling"
  bottom: "conv3_fastVsBg_03"
  top: "pool3_fastVsBg_03"
  pooling_param {
    pool: MAX
    kernel_size: 3
    stride: 2
  }
}
layer {
  name: "conv4_fastVsBg_03"
  type: "Convolution"
  bottom: "pool3_fastVsBg_03"
  top: "conv4_fastVsBg_03"
  propagate_down: false
  param {
    name: "conv4_w"
    lr_mult: 1
    lr_pre_mult: 0.02
    decay_mult: 10
  }
  param {
    name: "conv4_b"
    lr_mult: 2
    lr_pre_mult: 0.02
    decay_mult: 0
  }
  convolution_param {
    num_output: 512
    kernel_size: 5
    weight_filler {
      type: "gaussian"
      std: 0.01
    }
    bias_filler {
      type: "constant"
      value: 0
    }
  }
}
layer {
  name: "relu4_fastVsBg_03"
  type: "ReLU"
  bottom: "conv4_fastVsBg_03"
  top: "conv4_fastVsBg_03"
}
layer {
  name: "drop4_fastVsBg_03"
  type: "Dropout"
  bottom: "conv4_fastVsBg_03"
  top: "conv4_fastVsBg_03"
  dropout_param {
    dropout_ratio: 0.2
  }
}
layer {
  name: "pool4_fastVsBg_03"
  type: "Pooling"
  bottom: "conv4_fastVsBg_03"
  top: "pool4_fastVsBg_03"
  pooling_param {
    pool: MAX
    kernel_size: 3
    stride: 2
  }
}
layer {
  name: "ip5_fastVsBg_03"
  type: "Convolution"
  bottom: "pool4_fastVsBg_03"
  top: "ip5_fastVsBg_03"
  param {
    name: "ip5_fastVsBg_03_w"
    lr_mult: 0.1
    decay_mult: 1000
  }
  param {
    name: "ip5_fastVsBg_03_b"
    lr_mult: 0.2
    decay_mult: 0
  }
  convolution_param {
    num_output: 2
    kernel_size: 1
    weight_filler {
      type: "gaussian"
      std: 0.01
    }
    bias_filler {
      type: "constant"
      value: 0
    }
  }
}
layer {
  name: "accuracy_fastVsBg_03"
  type: "Accuracy"
  bottom: "ip5_fastVsBg_03"
  bottom: "label_fastVsBg_03"
  top: "accuracy_fastVsBg_03"
  include: { phase: TEST }
}
layer {
  name: "loss_fastVsBg_03"
  type: "HingeLoss"
  bottom: "ip5_fastVsBg_03"
  bottom: "label_fastVsBg_03"
#  top: "loss_fastVsBg_03"
}

# Task fastVsBg, class 04
layer {
  name: "data_fastVsBg_04"
  type: "Data"
  top: "data_fastVsBg_04"
  top: "label_fastVsBg_04"
  data_param {
    source: "data/amtrak/db_fastVsBg_04_train"
    source_map: "data/amtrak/fastVsBg_0_04-images-idx3-ubyte"
    source_map: "data/amtrak/fastVsBg_1_04-images-idx3-ubyte"
    source_map: "data/amtrak/fastVsBg_2_04-images-idx3-ubyte"
    source_map: "data/amtrak/fastVsBg_3_04-images-idx3-ubyte"
    source_map: "data/amtrak/fastVsBg_4_04-images-idx3-ubyte"
    backend: LMDB_FILE
    batch_size: 1
  }
  transform_param {
    scale: 0.00390625
    crop_size: 182
    mean_value: 96
    mirror: false
    mirror_v: false
  }
  include: { phase: TRAIN }
}
layer {
  name: "data_fastVsBg_04"
  type: "Data"
  top: "data_fastVsBg_04"
  top: "label_fastVsBg_04"
  data_param {
    source: "data/amtrak/db_fastVsBg_04_test"
    source_map: "data/amtrak/fastVsBg_0_04-images-idx3-ubyte"
    source_map: "data/amtrak/fastVsBg_1_04-images-idx3-ubyte"
    source_map: "data/amtrak/fastVsBg_2_04-images-idx3-ubyte"
    source_map: "data/amtrak/fastVsBg_3_04-images-idx3-ubyte"
    source_map: "data/amtrak/fastVsBg_4_04-images-idx3-ubyte"
    backend: LMDB_FILE
    batch_size: 2
  }
  transform_param {
    scale: 0.00390625
    crop_size: 182
    mean_value: 96
    mirror: false
  }
  include: { phase: TEST }
}
layer {
  name: "conv1_fastVsBg_04"
  type: "Convolution"
  bottom: "data_fastVsBg_04"
  top: "conv1_fastVsBg_04"
  param {
    name: "conv1_w"
    lr_mult: 1
    lr_pre_mult: 0.01
    decay_mult: 1
  }
  param {
    name: "conv1_b"
    lr_mult: 2
    lr_pre_mult: 0.01
    decay_mult: 0
  }
  convolution_param {
    num_output: 48
    kernel_size: 9
    stride: 2
    weight_filler {
      type: "gaussian"
      std: 0.01
    }
    bias_filler {
      type: "constant"
      value: 0
    }
  }
}
layer {
  name: "pool1_fastVsBg_04"
  type: "Pooling"
  bottom: "conv1_fastVsBg_04"
  top: "pool1_fastVsBg_04"
  pooling_param {
    pool: MAX
    kernel_size: 3
    stride: 2
  }
}
layer {
  name: "norm1_fastVsBg_04"
  type: "LRN"
  bottom: "pool1_fastVsBg_04"
  top: "norm1_fastVsBg_04"
  lrn_param {
    local_size: 5
    alpha: 0.001
    beta: 0.5
    norm_region: WITHIN_CHANNEL
  }
}
layer {
  name: "conv2_fastVsBg_04"
  type: "Convolution"
  bottom: "norm1_fastVsBg_04"
  top: "conv2_fastVsBg_04"
  param {
    name: "conv2_w"
    lr_mult: 1
    lr_pre_mult: 0.01
    decay_mult: 1
  }
  param {
    name: "conv2_b"
    lr_mult: 2
    lr_pre_mult: 0.01
    decay_mult: 0
  }
  convolution_param {
    num_output: 64
    kernel_size: 5
    stride: 1
    weight_filler {
      type: "gaussian"
      std: 0.01
    }
    bias_filler {
      type: "constant"
      value: 0
    }
  }
}
layer {
  name: "relu2_fastVsBg_04"
  type: "ReLU"
  bottom: "conv2_fastVsBg_04"
  top: "conv2_fastVsBg_04"
}
layer {
  name: "pool2_fastVsBg_04"
  type: "Pooling"
  bottom: "conv2_fastVsBg_04"
  top: "pool2_fastVsBg_04"
  pooling_param {
    pool: MAX
    kernel_size: 3
    stride: 2
  }
}
layer {
  name: "conv3_fastVsBg_04"
  type: "Convolution"
  bottom: "pool2_fastVsBg_04"
  top: "conv3_fastVsBg_04"
  param {
    name: "conv3_w"
    lr_mult: 1
    lr_pre_mult: 0.01
    decay_mult: 1
  }
  param {
    name: "conv3_b"
    lr_mult: 2
    lr_pre_mult: 0.01
    decay_mult: 0
  }
  convolution_param {
    num_output: 256
    kernel_size: 5
    weight_filler {
      type: "gaussian"
      std: 0.01
    }
    bias_filler {
      type: "constant"
      value: 0
    }
  }
}
layer {
  name: "relu3_fastVsBg_04"
  type: "ReLU"
  bottom: "conv3_fastVsBg_04"
  top: "conv3_fastVsBg_04"
}
layer {
  name: "drop3_fastVsBg_04"
  type: "Dropout"
  bottom: "conv3_fastVsBg_04"
  top: "conv3_fastVsBg_04"
  dropout_param {
    dropout_ratio: 0.1
  }
}
layer {
  name: "pool3_fastVsBg_04"
  type: "Pooling"
  bottom: "conv3_fastVsBg_04"
  top: "pool3_fastVsBg_04"
  pooling_param {
    pool: MAX
    kernel_size: 3
    stride: 2
  }
}
layer {
  name: "conv4_fastVsBg_04"
  type: "Convolution"
  bottom: "pool3_fastVsBg_04"
  top: "conv4_fastVsBg_04"
  propagate_down: false
  param {
    name: "conv4_w"
    lr_mult: 1
    lr_pre_mult: 0.02
    decay_mult: 10
  }
  param {
    name: "conv4_b"
    lr_mult: 2
    lr_pre_mult: 0.02
    decay_mult: 0
  }
  convolution_param {
    num_output: 512
    kernel_size: 5
    weight_filler {
      type: "gaussian"
      std: 0.01
    }
    bias_filler {
      type: "constant"
      value: 0
    }
  }
}
layer {
  name: "relu4_fastVsBg_04"
  type: "ReLU"
  bottom: "conv4_fastVsBg_04"
  top: "conv4_fastVsBg_04"
}
layer {
  name: "drop4_fastVsBg_04"
  type: "Dropout"
  bottom: "conv4_fastVsBg_04"
  top: "conv4_fastVsBg_04"
  dropout_param {
    dropout_ratio: 0.2
  }
}
layer {
  name: "pool4_fastVsBg_04"
  type: "Pooling"
  bottom: "conv4_fastVsBg_04"
  top: "pool4_fastVsBg_04"
  pooling_param {
    pool: MAX
    kernel_size: 3
    stride: 2
  }
}
layer {
  name: "ip5_fastVsBg_04"
  type: "Convolution"
  bottom: "pool4_fastVsBg_04"
  top: "ip5_fastVsBg_04"
  param {
    name: "ip5_fastVsBg_04_w"
    lr_mult: 0.1
    decay_mult: 1000
  }
  param {
    name: "ip5_fastVsBg_04_b"
    lr_mult: 0.2
    decay_mult: 0
  }
  convolution_param {
    num_output: 2
    kernel_size: 1
    weight_filler {
      type: "gaussian"
      std: 0.01
    }
    bias_filler {
      type: "constant"
      value: 0
    }
  }
}
layer {
  name: "accuracy_fastVsBg_04"
  type: "Accuracy"
  bottom: "ip5_fastVsBg_04"
  bottom: "label_fastVsBg_04"
  top: "accuracy_fastVsBg_04"
  include: { phase: TEST }
}
layer {
  name: "loss_fastVsBg_04"
  type: "HingeLoss"
  bottom: "ip5_fastVsBg_04"
  bottom: "label_fastVsBg_04"
#  top: "loss_fastVsBg_04"
}

# Task fastVsBg, class 05
layer {
  name: "data_fastVsBg_05"
  type: "Data"
  top: "data_fastVsBg_05"
  top: "label_fastVsBg_05"
  data_param {
    source: "data/amtrak/db_fastVsBg_05_train"
    source_map: "data/amtrak/fastVsBg_0_05-images-idx3-ubyte"
    source_map: "data/amtrak/fastVsBg_1_05-images-idx3-ubyte"
    source_map: "data/amtrak/fastVsBg_2_05-images-idx3-ubyte"
    source_map: "data/amtrak/fastVsBg_3_05-images-idx3-ubyte"
    source_map: "data/amtrak/fastVsBg_4_05-images-idx3-ubyte"
    backend: LMDB_FILE
    batch_size: 1
  }
  transform_param {
    scale: 0.00390625
    crop_size: 182
    mean_value: 96
    mirror: false
    mirror_v: false
  }
  include: { phase: TRAIN }
}
layer {
  name: "data_fastVsBg_05"
  type: "Data"
  top: "data_fastVsBg_05"
  top: "label_fastVsBg_05"
  data_param {
    source: "data/amtrak/db_fastVsBg_05_test"
    source_map: "data/amtrak/fastVsBg_0_05-images-idx3-ubyte"
    source_map: "data/amtrak/fastVsBg_1_05-images-idx3-ubyte"
    source_map: "data/amtrak/fastVsBg_2_05-images-idx3-ubyte"
    source_map: "data/amtrak/fastVsBg_3_05-images-idx3-ubyte"
    source_map: "data/amtrak/fastVsBg_4_05-images-idx3-ubyte"
    backend: LMDB_FILE
    batch_size: 2
  }
  transform_param {
    scale: 0.00390625
    crop_size: 182
    mean_value: 96
    mirror: false
  }
  include: { phase: TEST }
}
layer {
  name: "conv1_fastVsBg_05"
  type: "Convolution"
  bottom: "data_fastVsBg_05"
  top: "conv1_fastVsBg_05"
  param {
    name: "conv1_w"
    lr_mult: 1
    lr_pre_mult: 0.01
    decay_mult: 1
  }
  param {
    name: "conv1_b"
    lr_mult: 2
    lr_pre_mult: 0.01
    decay_mult: 0
  }
  convolution_param {
    num_output: 48
    kernel_size: 9
    stride: 2
    weight_filler {
      type: "gaussian"
      std: 0.01
    }
    bias_filler {
      type: "constant"
      value: 0
    }
  }
}
layer {
  name: "pool1_fastVsBg_05"
  type: "Pooling"
  bottom: "conv1_fastVsBg_05"
  top: "pool1_fastVsBg_05"
  pooling_param {
    pool: MAX
    kernel_size: 3
    stride: 2
  }
}
layer {
  name: "norm1_fastVsBg_05"
  type: "LRN"
  bottom: "pool1_fastVsBg_05"
  top: "norm1_fastVsBg_05"
  lrn_param {
    local_size: 5
    alpha: 0.001
    beta: 0.5
    norm_region: WITHIN_CHANNEL
  }
}
layer {
  name: "conv2_fastVsBg_05"
  type: "Convolution"
  bottom: "norm1_fastVsBg_05"
  top: "conv2_fastVsBg_05"
  param {
    name: "conv2_w"
    lr_mult: 1
    lr_pre_mult: 0.01
    decay_mult: 1
  }
  param {
    name: "conv2_b"
    lr_mult: 2
    lr_pre_mult: 0.01
    decay_mult: 0
  }
  convolution_param {
    num_output: 64
    kernel_size: 5
    stride: 1
    weight_filler {
      type: "gaussian"
      std: 0.01
    }
    bias_filler {
      type: "constant"
      value: 0
    }
  }
}
layer {
  name: "relu2_fastVsBg_05"
  type: "ReLU"
  bottom: "conv2_fastVsBg_05"
  top: "conv2_fastVsBg_05"
}
layer {
  name: "pool2_fastVsBg_05"
  type: "Pooling"
  bottom: "conv2_fastVsBg_05"
  top: "pool2_fastVsBg_05"
  pooling_param {
    pool: MAX
    kernel_size: 3
    stride: 2
  }
}
layer {
  name: "conv3_fastVsBg_05"
  type: "Convolution"
  bottom: "pool2_fastVsBg_05"
  top: "conv3_fastVsBg_05"
  param {
    name: "conv3_w"
    lr_mult: 1
    lr_pre_mult: 0.01
    decay_mult: 1
  }
  param {
    name: "conv3_b"
    lr_mult: 2
    lr_pre_mult: 0.01
    decay_mult: 0
  }
  convolution_param {
    num_output: 256
    kernel_size: 5
    weight_filler {
      type: "gaussian"
      std: 0.01
    }
    bias_filler {
      type: "constant"
      value: 0
    }
  }
}
layer {
  name: "relu3_fastVsBg_05"
  type: "ReLU"
  bottom: "conv3_fastVsBg_05"
  top: "conv3_fastVsBg_05"
}
layer {
  name: "drop3_fastVsBg_05"
  type: "Dropout"
  bottom: "conv3_fastVsBg_05"
  top: "conv3_fastVsBg_05"
  dropout_param {
    dropout_ratio: 0.1
  }
}
layer {
  name: "pool3_fastVsBg_05"
  type: "Pooling"
  bottom: "conv3_fastVsBg_05"
  top: "pool3_fastVsBg_05"
  pooling_param {
    pool: MAX
    kernel_size: 3
    stride: 2
  }
}
layer {
  name: "conv4_fastVsBg_05"
  type: "Convolution"
  bottom: "pool3_fastVsBg_05"
  top: "conv4_fastVsBg_05"
  propagate_down: false
  param {
    name: "conv4_w"
    lr_mult: 1
    lr_pre_mult: 0.02
    decay_mult: 10
  }
  param {
    name: "conv4_b"
    lr_mult: 2
    lr_pre_mult: 0.02
    decay_mult: 0
  }
  convolution_param {
    num_output: 512
    kernel_size: 5
    weight_filler {
      type: "gaussian"
      std: 0.01
    }
    bias_filler {
      type: "constant"
      value: 0
    }
  }
}
layer {
  name: "relu4_fastVsBg_05"
  type: "ReLU"
  bottom: "conv4_fastVsBg_05"
  top: "conv4_fastVsBg_05"
}
layer {
  name: "drop4_fastVsBg_05"
  type: "Dropout"
  bottom: "conv4_fastVsBg_05"
  top: "conv4_fastVsBg_05"
  dropout_param {
    dropout_ratio: 0.2
  }
}
layer {
  name: "pool4_fastVsBg_05"
  type: "Pooling"
  bottom: "conv4_fastVsBg_05"
  top: "pool4_fastVsBg_05"
  pooling_param {
    pool: MAX
    kernel_size: 3
    stride: 2
  }
}
layer {
  name: "ip5_fastVsBg_05"
  type: "Convolution"
  bottom: "pool4_fastVsBg_05"
  top: "ip5_fastVsBg_05"
  param {
    name: "ip5_fastVsBg_05_w"
    lr_mult: 0.1
    decay_mult: 1000
  }
  param {
    name: "ip5_fastVsBg_05_b"
    lr_mult: 0.2
    decay_mult: 0
  }
  convolution_param {
    num_output: 2
    kernel_size: 1
    weight_filler {
      type: "gaussian"
      std: 0.01
    }
    bias_filler {
      type: "constant"
      value: 0
    }
  }
}
layer {
  name: "accuracy_fastVsBg_05"
  type: "Accuracy"
  bottom: "ip5_fastVsBg_05"
  bottom: "label_fastVsBg_05"
  top: "accuracy_fastVsBg_05"
  include: { phase: TEST }
}
layer {
  name: "loss_fastVsBg_05"
  type: "HingeLoss"
  bottom: "ip5_fastVsBg_05"
  bottom: "label_fastVsBg_05"
#  top: "loss_fastVsBg_05"
}

# Task fastVsBg, class 06
layer {
  name: "data_fastVsBg_06"
  type: "Data"
  top: "data_fastVsBg_06"
  top: "label_fastVsBg_06"
  data_param {
    source: "data/amtrak/db_fastVsBg_06_train"
    source_map: "data/amtrak/fastVsBg_0_06-images-idx3-ubyte"
    source_map: "data/amtrak/fastVsBg_1_06-images-idx3-ubyte"
    source_map: "data/amtrak/fastVsBg_2_06-images-idx3-ubyte"
    source_map: "data/amtrak/fastVsBg_3_06-images-idx3-ubyte"
    source_map: "data/amtrak/fastVsBg_4_06-images-idx3-ubyte"
    backend: LMDB_FILE
    batch_size: 1
  }
  transform_param {
    scale: 0.00390625
    crop_size: 182
    mean_value: 96
    mirror: false
    mirror_v: false
  }
  include: { phase: TRAIN }
}
layer {
  name: "data_fastVsBg_06"
  type: "Data"
  top: "data_fastVsBg_06"
  top: "label_fastVsBg_06"
  data_param {
    source: "data/amtrak/db_fastVsBg_06_test"
    source_map: "data/amtrak/fastVsBg_0_06-images-idx3-ubyte"
    source_map: "data/amtrak/fastVsBg_1_06-images-idx3-ubyte"
    source_map: "data/amtrak/fastVsBg_2_06-images-idx3-ubyte"
    source_map: "data/amtrak/fastVsBg_3_06-images-idx3-ubyte"
    source_map: "data/amtrak/fastVsBg_4_06-images-idx3-ubyte"
    backend: LMDB_FILE
    batch_size: 2
  }
  transform_param {
    scale: 0.00390625
    crop_size: 182
    mean_value: 96
    mirror: false
  }
  include: { phase: TEST }
}
layer {
  name: "conv1_fastVsBg_06"
  type: "Convolution"
  bottom: "data_fastVsBg_06"
  top: "conv1_fastVsBg_06"
  param {
    name: "conv1_w"
    lr_mult: 1
    lr_pre_mult: 0.01
    decay_mult: 1
  }
  param {
    name: "conv1_b"
    lr_mult: 2
    lr_pre_mult: 0.01
    decay_mult: 0
  }
  convolution_param {
    num_output: 48
    kernel_size: 9
    stride: 2
    weight_filler {
      type: "gaussian"
      std: 0.01
    }
    bias_filler {
      type: "constant"
      value: 0
    }
  }
}
layer {
  name: "pool1_fastVsBg_06"
  type: "Pooling"
  bottom: "conv1_fastVsBg_06"
  top: "pool1_fastVsBg_06"
  pooling_param {
    pool: MAX
    kernel_size: 3
    stride: 2
  }
}
layer {
  name: "norm1_fastVsBg_06"
  type: "LRN"
  bottom: "pool1_fastVsBg_06"
  top: "norm1_fastVsBg_06"
  lrn_param {
    local_size: 5
    alpha: 0.001
    beta: 0.5
    norm_region: WITHIN_CHANNEL
  }
}
layer {
  name: "conv2_fastVsBg_06"
  type: "Convolution"
  bottom: "norm1_fastVsBg_06"
  top: "conv2_fastVsBg_06"
  param {
    name: "conv2_w"
    lr_mult: 1
    lr_pre_mult: 0.01
    decay_mult: 1
  }
  param {
    name: "conv2_b"
    lr_mult: 2
    lr_pre_mult: 0.01
    decay_mult: 0
  }
  convolution_param {
    num_output: 64
    kernel_size: 5
    stride: 1
    weight_filler {
      type: "gaussian"
      std: 0.01
    }
    bias_filler {
      type: "constant"
      value: 0
    }
  }
}
layer {
  name: "relu2_fastVsBg_06"
  type: "ReLU"
  bottom: "conv2_fastVsBg_06"
  top: "conv2_fastVsBg_06"
}
layer {
  name: "pool2_fastVsBg_06"
  type: "Pooling"
  bottom: "conv2_fastVsBg_06"
  top: "pool2_fastVsBg_06"
  pooling_param {
    pool: MAX
    kernel_size: 3
    stride: 2
  }
}
layer {
  name: "conv3_fastVsBg_06"
  type: "Convolution"
  bottom: "pool2_fastVsBg_06"
  top: "conv3_fastVsBg_06"
  param {
    name: "conv3_w"
    lr_mult: 1
    lr_pre_mult: 0.01
    decay_mult: 1
  }
  param {
    name: "conv3_b"
    lr_mult: 2
    lr_pre_mult: 0.01
    decay_mult: 0
  }
  convolution_param {
    num_output: 256
    kernel_size: 5
    weight_filler {
      type: "gaussian"
      std: 0.01
    }
    bias_filler {
      type: "constant"
      value: 0
    }
  }
}
layer {
  name: "relu3_fastVsBg_06"
  type: "ReLU"
  bottom: "conv3_fastVsBg_06"
  top: "conv3_fastVsBg_06"
}
layer {
  name: "drop3_fastVsBg_06"
  type: "Dropout"
  bottom: "conv3_fastVsBg_06"
  top: "conv3_fastVsBg_06"
  dropout_param {
    dropout_ratio: 0.1
  }
}
layer {
  name: "pool3_fastVsBg_06"
  type: "Pooling"
  bottom: "conv3_fastVsBg_06"
  top: "pool3_fastVsBg_06"
  pooling_param {
    pool: MAX
    kernel_size: 3
    stride: 2
  }
}
layer {
  name: "conv4_fastVsBg_06"
  type: "Convolution"
  bottom: "pool3_fastVsBg_06"
  top: "conv4_fastVsBg_06"
  propagate_down: false
  param {
    name: "conv4_w"
    lr_mult: 1
    lr_pre_mult: 0.02
    decay_mult: 10
  }
  param {
    name: "conv4_b"
    lr_mult: 2
    lr_pre_mult: 0.02
    decay_mult: 0
  }
  convolution_param {
    num_output: 512
    kernel_size: 5
    weight_filler {
      type: "gaussian"
      std: 0.01
    }
    bias_filler {
      type: "constant"
      value: 0
    }
  }
}
layer {
  name: "relu4_fastVsBg_06"
  type: "ReLU"
  bottom: "conv4_fastVsBg_06"
  top: "conv4_fastVsBg_06"
}
layer {
  name: "drop4_fastVsBg_06"
  type: "Dropout"
  bottom: "conv4_fastVsBg_06"
  top: "conv4_fastVsBg_06"
  dropout_param {
    dropout_ratio: 0.2
  }
}
layer {
  name: "pool4_fastVsBg_06"
  type: "Pooling"
  bottom: "conv4_fastVsBg_06"
  top: "pool4_fastVsBg_06"
  pooling_param {
    pool: MAX
    kernel_size: 3
    stride: 2
  }
}
layer {
  name: "ip5_fastVsBg_06"
  type: "Convolution"
  bottom: "pool4_fastVsBg_06"
  top: "ip5_fastVsBg_06"
  param {
    name: "ip5_fastVsBg_06_w"
    lr_mult: 0.1
    decay_mult: 1000
  }
  param {
    name: "ip5_fastVsBg_06_b"
    lr_mult: 0.2
    decay_mult: 0
  }
  convolution_param {
    num_output: 2
    kernel_size: 1
    weight_filler {
      type: "gaussian"
      std: 0.01
    }
    bias_filler {
      type: "constant"
      value: 0
    }
  }
}
layer {
  name: "accuracy_fastVsBg_06"
  type: "Accuracy"
  bottom: "ip5_fastVsBg_06"
  bottom: "label_fastVsBg_06"
  top: "accuracy_fastVsBg_06"
  include: { phase: TEST }
}
layer {
  name: "loss_fastVsBg_06"
  type: "HingeLoss"
  bottom: "ip5_fastVsBg_06"
  bottom: "label_fastVsBg_06"
#  top: "loss_fastVsBg_06"
}

# Task fastVsBg, class 07
layer {
  name: "data_fastVsBg_07"
  type: "Data"
  top: "data_fastVsBg_07"
  top: "label_fastVsBg_07"
  data_param {
    source: "data/amtrak/db_fastVsBg_07_train"
    source_map: "data/amtrak/fastVsBg_0_07-images-idx3-ubyte"
    source_map: "data/amtrak/fastVsBg_1_07-images-idx3-ubyte"
    source_map: "data/amtrak/fastVsBg_2_07-images-idx3-ubyte"
    source_map: "data/amtrak/fastVsBg_3_07-images-idx3-ubyte"
    source_map: "data/amtrak/fastVsBg_4_07-images-idx3-ubyte"
    backend: LMDB_FILE
    batch_size: 1
  }
  transform_param {
    scale: 0.00390625
    crop_size: 182
    mean_value: 96
    mirror: false
    mirror_v: false
  }
  include: { phase: TRAIN }
}
layer {
  name: "data_fastVsBg_07"
  type: "Data"
  top: "data_fastVsBg_07"
  top: "label_fastVsBg_07"
  data_param {
    source: "data/amtrak/db_fastVsBg_07_test"
    source_map: "data/amtrak/fastVsBg_0_07-images-idx3-ubyte"
    source_map: "data/amtrak/fastVsBg_1_07-images-idx3-ubyte"
    source_map: "data/amtrak/fastVsBg_2_07-images-idx3-ubyte"
    source_map: "data/amtrak/fastVsBg_3_07-images-idx3-ubyte"
    source_map: "data/amtrak/fastVsBg_4_07-images-idx3-ubyte"
    backend: LMDB_FILE
    batch_size: 2
  }
  transform_param {
    scale: 0.00390625
    crop_size: 182
    mean_value: 96
    mirror: false
  }
  include: { phase: TEST }
}
layer {
  name: "conv1_fastVsBg_07"
  type: "Convolution"
  bottom: "data_fastVsBg_07"
  top: "conv1_fastVsBg_07"
  param {
    name: "conv1_w"
    lr_mult: 1
    lr_pre_mult: 0.01
    decay_mult: 1
  }
  param {
    name: "conv1_b"
    lr_mult: 2
    lr_pre_mult: 0.01
    decay_mult: 0
  }
  convolution_param {
    num_output: 48
    kernel_size: 9
    stride: 2
    weight_filler {
      type: "gaussian"
      std: 0.01
    }
    bias_filler {
      type: "constant"
      value: 0
    }
  }
}
layer {
  name: "pool1_fastVsBg_07"
  type: "Pooling"
  bottom: "conv1_fastVsBg_07"
  top: "pool1_fastVsBg_07"
  pooling_param {
    pool: MAX
    kernel_size: 3
    stride: 2
  }
}
layer {
  name: "norm1_fastVsBg_07"
  type: "LRN"
  bottom: "pool1_fastVsBg_07"
  top: "norm1_fastVsBg_07"
  lrn_param {
    local_size: 5
    alpha: 0.001
    beta: 0.5
    norm_region: WITHIN_CHANNEL
  }
}
layer {
  name: "conv2_fastVsBg_07"
  type: "Convolution"
  bottom: "norm1_fastVsBg_07"
  top: "conv2_fastVsBg_07"
  param {
    name: "conv2_w"
    lr_mult: 1
    lr_pre_mult: 0.01
    decay_mult: 1
  }
  param {
    name: "conv2_b"
    lr_mult: 2
    lr_pre_mult: 0.01
    decay_mult: 0
  }
  convolution_param {
    num_output: 64
    kernel_size: 5
    stride: 1
    weight_filler {
      type: "gaussian"
      std: 0.01
    }
    bias_filler {
      type: "constant"
      value: 0
    }
  }
}
layer {
  name: "relu2_fastVsBg_07"
  type: "ReLU"
  bottom: "conv2_fastVsBg_07"
  top: "conv2_fastVsBg_07"
}
layer {
  name: "pool2_fastVsBg_07"
  type: "Pooling"
  bottom: "conv2_fastVsBg_07"
  top: "pool2_fastVsBg_07"
  pooling_param {
    pool: MAX
    kernel_size: 3
    stride: 2
  }
}
layer {
  name: "conv3_fastVsBg_07"
  type: "Convolution"
  bottom: "pool2_fastVsBg_07"
  top: "conv3_fastVsBg_07"
  param {
    name: "conv3_w"
    lr_mult: 1
    lr_pre_mult: 0.01
    decay_mult: 1
  }
  param {
    name: "conv3_b"
    lr_mult: 2
    lr_pre_mult: 0.01
    decay_mult: 0
  }
  convolution_param {
    num_output: 256
    kernel_size: 5
    weight_filler {
      type: "gaussian"
      std: 0.01
    }
    bias_filler {
      type: "constant"
      value: 0
    }
  }
}
layer {
  name: "relu3_fastVsBg_07"
  type: "ReLU"
  bottom: "conv3_fastVsBg_07"
  top: "conv3_fastVsBg_07"
}
layer {
  name: "drop3_fastVsBg_07"
  type: "Dropout"
  bottom: "conv3_fastVsBg_07"
  top: "conv3_fastVsBg_07"
  dropout_param {
    dropout_ratio: 0.1
  }
}
layer {
  name: "pool3_fastVsBg_07"
  type: "Pooling"
  bottom: "conv3_fastVsBg_07"
  top: "pool3_fastVsBg_07"
  pooling_param {
    pool: MAX
    kernel_size: 3
    stride: 2
  }
}
layer {
  name: "conv4_fastVsBg_07"
  type: "Convolution"
  bottom: "pool3_fastVsBg_07"
  top: "conv4_fastVsBg_07"
  propagate_down: false
  param {
    name: "conv4_w"
    lr_mult: 1
    lr_pre_mult: 0.02
    decay_mult: 10
  }
  param {
    name: "conv4_b"
    lr_mult: 2
    lr_pre_mult: 0.02
    decay_mult: 0
  }
  convolution_param {
    num_output: 512
    kernel_size: 5
    weight_filler {
      type: "gaussian"
      std: 0.01
    }
    bias_filler {
      type: "constant"
      value: 0
    }
  }
}
layer {
  name: "relu4_fastVsBg_07"
  type: "ReLU"
  bottom: "conv4_fastVsBg_07"
  top: "conv4_fastVsBg_07"
}
layer {
  name: "drop4_fastVsBg_07"
  type: "Dropout"
  bottom: "conv4_fastVsBg_07"
  top: "conv4_fastVsBg_07"
  dropout_param {
    dropout_ratio: 0.2
  }
}
layer {
  name: "pool4_fastVsBg_07"
  type: "Pooling"
  bottom: "conv4_fastVsBg_07"
  top: "pool4_fastVsBg_07"
  pooling_param {
    pool: MAX
    kernel_size: 3
    stride: 2
  }
}
layer {
  name: "ip5_fastVsBg_07"
  type: "Convolution"
  bottom: "pool4_fastVsBg_07"
  top: "ip5_fastVsBg_07"
  param {
    name: "ip5_fastVsBg_07_w"
    lr_mult: 0.1
    decay_mult: 1000
  }
  param {
    name: "ip5_fastVsBg_07_b"
    lr_mult: 0.2
    decay_mult: 0
  }
  convolution_param {
    num_output: 2
    kernel_size: 1
    weight_filler {
      type: "gaussian"
      std: 0.01
    }
    bias_filler {
      type: "constant"
      value: 0
    }
  }
}
layer {
  name: "accuracy_fastVsBg_07"
  type: "Accuracy"
  bottom: "ip5_fastVsBg_07"
  bottom: "label_fastVsBg_07"
  top: "accuracy_fastVsBg_07"
  include: { phase: TEST }
}
layer {
  name: "loss_fastVsBg_07"
  type: "HingeLoss"
  bottom: "ip5_fastVsBg_07"
  bottom: "label_fastVsBg_07"
#  top: "loss_fastVsBg_07"
}

# Task fastVsBg, class 08
layer {
  name: "data_fastVsBg_08"
  type: "Data"
  top: "data_fastVsBg_08"
  top: "label_fastVsBg_08"
  data_param {
    source: "data/amtrak/db_fastVsBg_08_train"
    source_map: "data/amtrak/fastVsBg_0_08-images-idx3-ubyte"
    source_map: "data/amtrak/fastVsBg_1_08-images-idx3-ubyte"
    source_map: "data/amtrak/fastVsBg_2_08-images-idx3-ubyte"
    source_map: "data/amtrak/fastVsBg_3_08-images-idx3-ubyte"
    source_map: "data/amtrak/fastVsBg_4_08-images-idx3-ubyte"
    backend: LMDB_FILE
    batch_size: 1
  }
  transform_param {
    scale: 0.00390625
    crop_size: 182
    mean_value: 96
    mirror: false
    mirror_v: false
  }
  include: { phase: TRAIN }
}
layer {
  name: "data_fastVsBg_08"
  type: "Data"
  top: "data_fastVsBg_08"
  top: "label_fastVsBg_08"
  data_param {
    source: "data/amtrak/db_fastVsBg_08_test"
    source_map: "data/amtrak/fastVsBg_0_08-images-idx3-ubyte"
    source_map: "data/amtrak/fastVsBg_1_08-images-idx3-ubyte"
    source_map: "data/amtrak/fastVsBg_2_08-images-idx3-ubyte"
    source_map: "data/amtrak/fastVsBg_3_08-images-idx3-ubyte"
    source_map: "data/amtrak/fastVsBg_4_08-images-idx3-ubyte"
    backend: LMDB_FILE
    batch_size: 2
  }
  transform_param {
    scale: 0.00390625
    crop_size: 182
    mean_value: 96
    mirror: false
  }
  include: { phase: TEST }
}
layer {
  name: "conv1_fastVsBg_08"
  type: "Convolution"
  bottom: "data_fastVsBg_08"
  top: "conv1_fastVsBg_08"
  param {
    name: "conv1_w"
    lr_mult: 1
    lr_pre_mult: 0.01
    decay_mult: 1
  }
  param {
    name: "conv1_b"
    lr_mult: 2
    lr_pre_mult: 0.01
    decay_mult: 0
  }
  convolution_param {
    num_output: 48
    kernel_size: 9
    stride: 2
    weight_filler {
      type: "gaussian"
      std: 0.01
    }
    bias_filler {
      type: "constant"
      value: 0
    }
  }
}
layer {
  name: "pool1_fastVsBg_08"
  type: "Pooling"
  bottom: "conv1_fastVsBg_08"
  top: "pool1_fastVsBg_08"
  pooling_param {
    pool: MAX
    kernel_size: 3
    stride: 2
  }
}
layer {
  name: "norm1_fastVsBg_08"
  type: "LRN"
  bottom: "pool1_fastVsBg_08"
  top: "norm1_fastVsBg_08"
  lrn_param {
    local_size: 5
    alpha: 0.001
    beta: 0.5
    norm_region: WITHIN_CHANNEL
  }
}
layer {
  name: "conv2_fastVsBg_08"
  type: "Convolution"
  bottom: "norm1_fastVsBg_08"
  top: "conv2_fastVsBg_08"
  param {
    name: "conv2_w"
    lr_mult: 1
    lr_pre_mult: 0.01
    decay_mult: 1
  }
  param {
    name: "conv2_b"
    lr_mult: 2
    lr_pre_mult: 0.01
    decay_mult: 0
  }
  convolution_param {
    num_output: 64
    kernel_size: 5
    stride: 1
    weight_filler {
      type: "gaussian"
      std: 0.01
    }
    bias_filler {
      type: "constant"
      value: 0
    }
  }
}
layer {
  name: "relu2_fastVsBg_08"
  type: "ReLU"
  bottom: "conv2_fastVsBg_08"
  top: "conv2_fastVsBg_08"
}
layer {
  name: "pool2_fastVsBg_08"
  type: "Pooling"
  bottom: "conv2_fastVsBg_08"
  top: "pool2_fastVsBg_08"
  pooling_param {
    pool: MAX
    kernel_size: 3
    stride: 2
  }
}
layer {
  name: "conv3_fastVsBg_08"
  type: "Convolution"
  bottom: "pool2_fastVsBg_08"
  top: "conv3_fastVsBg_08"
  param {
    name: "conv3_w"
    lr_mult: 1
    lr_pre_mult: 0.01
    decay_mult: 1
  }
  param {
    name: "conv3_b"
    lr_mult: 2
    lr_pre_mult: 0.01
    decay_mult: 0
  }
  convolution_param {
    num_output: 256
    kernel_size: 5
    weight_filler {
      type: "gaussian"
      std: 0.01
    }
    bias_filler {
      type: "constant"
      value: 0
    }
  }
}
layer {
  name: "relu3_fastVsBg_08"
  type: "ReLU"
  bottom: "conv3_fastVsBg_08"
  top: "conv3_fastVsBg_08"
}
layer {
  name: "drop3_fastVsBg_08"
  type: "Dropout"
  bottom: "conv3_fastVsBg_08"
  top: "conv3_fastVsBg_08"
  dropout_param {
    dropout_ratio: 0.1
  }
}
layer {
  name: "pool3_fastVsBg_08"
  type: "Pooling"
  bottom: "conv3_fastVsBg_08"
  top: "pool3_fastVsBg_08"
  pooling_param {
    pool: MAX
    kernel_size: 3
    stride: 2
  }
}
layer {
  name: "conv4_fastVsBg_08"
  type: "Convolution"
  bottom: "pool3_fastVsBg_08"
  top: "conv4_fastVsBg_08"
  propagate_down: false
  param {
    name: "conv4_w"
    lr_mult: 1
    lr_pre_mult: 0.02
    decay_mult: 10
  }
  param {
    name: "conv4_b"
    lr_mult: 2
    lr_pre_mult: 0.02
    decay_mult: 0
  }
  convolution_param {
    num_output: 512
    kernel_size: 5
    weight_filler {
      type: "gaussian"
      std: 0.01
    }
    bias_filler {
      type: "constant"
      value: 0
    }
  }
}
layer {
  name: "relu4_fastVsBg_08"
  type: "ReLU"
  bottom: "conv4_fastVsBg_08"
  top: "conv4_fastVsBg_08"
}
layer {
  name: "drop4_fastVsBg_08"
  type: "Dropout"
  bottom: "conv4_fastVsBg_08"
  top: "conv4_fastVsBg_08"
  dropout_param {
    dropout_ratio: 0.2
  }
}
layer {
  name: "pool4_fastVsBg_08"
  type: "Pooling"
  bottom: "conv4_fastVsBg_08"
  top: "pool4_fastVsBg_08"
  pooling_param {
    pool: MAX
    kernel_size: 3
    stride: 2
  }
}
layer {
  name: "ip5_fastVsBg_08"
  type: "Convolution"
  bottom: "pool4_fastVsBg_08"
  top: "ip5_fastVsBg_08"
  param {
    name: "ip5_fastVsBg_08_w"
    lr_mult: 0.1
    decay_mult: 1000
  }
  param {
    name: "ip5_fastVsBg_08_b"
    lr_mult: 0.2
    decay_mult: 0
  }
  convolution_param {
    num_output: 2
    kernel_size: 1
    weight_filler {
      type: "gaussian"
      std: 0.01
    }
    bias_filler {
      type: "constant"
      value: 0
    }
  }
}
layer {
  name: "accuracy_fastVsBg_08"
  type: "Accuracy"
  bottom: "ip5_fastVsBg_08"
  bottom: "label_fastVsBg_08"
  top: "accuracy_fastVsBg_08"
  include: { phase: TEST }
}
layer {
  name: "loss_fastVsBg_08"
  type: "HingeLoss"
  bottom: "ip5_fastVsBg_08"
  bottom: "label_fastVsBg_08"
#  top: "loss_fastVsBg_08"
}

# Task fastVsBg, class 09
layer {
  name: "data_fastVsBg_09"
  type: "Data"
  top: "data_fastVsBg_09"
  top: "label_fastVsBg_09"
  data_param {
    source: "data/amtrak/db_fastVsBg_09_train"
    source_map: "data/amtrak/fastVsBg_0_09-images-idx3-ubyte"
    source_map: "data/amtrak/fastVsBg_1_09-images-idx3-ubyte"
    source_map: "data/amtrak/fastVsBg_2_09-images-idx3-ubyte"
    source_map: "data/amtrak/fastVsBg_3_09-images-idx3-ubyte"
    source_map: "data/amtrak/fastVsBg_4_09-images-idx3-ubyte"
    backend: LMDB_FILE
    batch_size: 1
  }
  transform_param {
    scale: 0.00390625
    crop_size: 182
    mean_value: 96
    mirror: false
    mirror_v: false
  }
  include: { phase: TRAIN }
}
layer {
  name: "data_fastVsBg_09"
  type: "Data"
  top: "data_fastVsBg_09"
  top: "label_fastVsBg_09"
  data_param {
    source: "data/amtrak/db_fastVsBg_09_test"
    source_map: "data/amtrak/fastVsBg_0_09-images-idx3-ubyte"
    source_map: "data/amtrak/fastVsBg_1_09-images-idx3-ubyte"
    source_map: "data/amtrak/fastVsBg_2_09-images-idx3-ubyte"
    source_map: "data/amtrak/fastVsBg_3_09-images-idx3-ubyte"
    source_map: "data/amtrak/fastVsBg_4_09-images-idx3-ubyte"
    backend: LMDB_FILE
    batch_size: 2
  }
  transform_param {
    scale: 0.00390625
    crop_size: 182
    mean_value: 96
    mirror: false
  }
  include: { phase: TEST }
}
layer {
  name: "conv1_fastVsBg_09"
  type: "Convolution"
  bottom: "data_fastVsBg_09"
  top: "conv1_fastVsBg_09"
  param {
    name: "conv1_w"
    lr_mult: 1
    lr_pre_mult: 0.01
    decay_mult: 1
  }
  param {
    name: "conv1_b"
    lr_mult: 2
    lr_pre_mult: 0.01
    decay_mult: 0
  }
  convolution_param {
    num_output: 48
    kernel_size: 9
    stride: 2
    weight_filler {
      type: "gaussian"
      std: 0.01
    }
    bias_filler {
      type: "constant"
      value: 0
    }
  }
}
layer {
  name: "pool1_fastVsBg_09"
  type: "Pooling"
  bottom: "conv1_fastVsBg_09"
  top: "pool1_fastVsBg_09"
  pooling_param {
    pool: MAX
    kernel_size: 3
    stride: 2
  }
}
layer {
  name: "norm1_fastVsBg_09"
  type: "LRN"
  bottom: "pool1_fastVsBg_09"
  top: "norm1_fastVsBg_09"
  lrn_param {
    local_size: 5
    alpha: 0.001
    beta: 0.5
    norm_region: WITHIN_CHANNEL
  }
}
layer {
  name: "conv2_fastVsBg_09"
  type: "Convolution"
  bottom: "norm1_fastVsBg_09"
  top: "conv2_fastVsBg_09"
  param {
    name: "conv2_w"
    lr_mult: 1
    lr_pre_mult: 0.01
    decay_mult: 1
  }
  param {
    name: "conv2_b"
    lr_mult: 2
    lr_pre_mult: 0.01
    decay_mult: 0
  }
  convolution_param {
    num_output: 64
    kernel_size: 5
    stride: 1
    weight_filler {
      type: "gaussian"
      std: 0.01
    }
    bias_filler {
      type: "constant"
      value: 0
    }
  }
}
layer {
  name: "relu2_fastVsBg_09"
  type: "ReLU"
  bottom: "conv2_fastVsBg_09"
  top: "conv2_fastVsBg_09"
}
layer {
  name: "pool2_fastVsBg_09"
  type: "Pooling"
  bottom: "conv2_fastVsBg_09"
  top: "pool2_fastVsBg_09"
  pooling_param {
    pool: MAX
    kernel_size: 3
    stride: 2
  }
}
layer {
  name: "conv3_fastVsBg_09"
  type: "Convolution"
  bottom: "pool2_fastVsBg_09"
  top: "conv3_fastVsBg_09"
  param {
    name: "conv3_w"
    lr_mult: 1
    lr_pre_mult: 0.01
    decay_mult: 1
  }
  param {
    name: "conv3_b"
    lr_mult: 2
    lr_pre_mult: 0.01
    decay_mult: 0
  }
  convolution_param {
    num_output: 256
    kernel_size: 5
    weight_filler {
      type: "gaussian"
      std: 0.01
    }
    bias_filler {
      type: "constant"
      value: 0
    }
  }
}
layer {
  name: "relu3_fastVsBg_09"
  type: "ReLU"
  bottom: "conv3_fastVsBg_09"
  top: "conv3_fastVsBg_09"
}
layer {
  name: "drop3_fastVsBg_09"
  type: "Dropout"
  bottom: "conv3_fastVsBg_09"
  top: "conv3_fastVsBg_09"
  dropout_param {
    dropout_ratio: 0.1
  }
}
layer {
  name: "pool3_fastVsBg_09"
  type: "Pooling"
  bottom: "conv3_fastVsBg_09"
  top: "pool3_fastVsBg_09"
  pooling_param {
    pool: MAX
    kernel_size: 3
    stride: 2
  }
}
layer {
  name: "conv4_fastVsBg_09"
  type: "Convolution"
  bottom: "pool3_fastVsBg_09"
  top: "conv4_fastVsBg_09"
  propagate_down: false
  param {
    name: "conv4_w"
    lr_mult: 1
    lr_pre_mult: 0.02
    decay_mult: 10
  }
  param {
    name: "conv4_b"
    lr_mult: 2
    lr_pre_mult: 0.02
    decay_mult: 0
  }
  convolution_param {
    num_output: 512
    kernel_size: 5
    weight_filler {
      type: "gaussian"
      std: 0.01
    }
    bias_filler {
      type: "constant"
      value: 0
    }
  }
}
layer {
  name: "relu4_fastVsBg_09"
  type: "ReLU"
  bottom: "conv4_fastVsBg_09"
  top: "conv4_fastVsBg_09"
}
layer {
  name: "drop4_fastVsBg_09"
  type: "Dropout"
  bottom: "conv4_fastVsBg_09"
  top: "conv4_fastVsBg_09"
  dropout_param {
    dropout_ratio: 0.2
  }
}
layer {
  name: "pool4_fastVsBg_09"
  type: "Pooling"
  bottom: "conv4_fastVsBg_09"
  top: "pool4_fastVsBg_09"
  pooling_param {
    pool: MAX
    kernel_size: 3
    stride: 2
  }
}
layer {
  name: "ip5_fastVsBg_09"
  type: "Convolution"
  bottom: "pool4_fastVsBg_09"
  top: "ip5_fastVsBg_09"
  param {
    name: "ip5_fastVsBg_09_w"
    lr_mult: 0.1
    decay_mult: 1000
  }
  param {
    name: "ip5_fastVsBg_09_b"
    lr_mult: 0.2
    decay_mult: 0
  }
  convolution_param {
    num_output: 2
    kernel_size: 1
    weight_filler {
      type: "gaussian"
      std: 0.01
    }
    bias_filler {
      type: "constant"
      value: 0
    }
  }
}
layer {
  name: "accuracy_fastVsBg_09"
  type: "Accuracy"
  bottom: "ip5_fastVsBg_09"
  bottom: "label_fastVsBg_09"
  top: "accuracy_fastVsBg_09"
  include: { phase: TEST }
}
layer {
  name: "loss_fastVsBg_09"
  type: "HingeLoss"
  bottom: "ip5_fastVsBg_09"
  bottom: "label_fastVsBg_09"
#  top: "loss_fastVsBg_09"
}

# Task fastVsBg, class 10
layer {
  name: "data_fastVsBg_10"
  type: "Data"
  top: "data_fastVsBg_10"
  top: "label_fastVsBg_10"
  data_param {
    source: "data/amtrak/db_fastVsBg_10_train"
    source_map: "data/amtrak/fastVsBg_0_10-images-idx3-ubyte"
    source_map: "data/amtrak/fastVsBg_1_10-images-idx3-ubyte"
    source_map: "data/amtrak/fastVsBg_2_10-images-idx3-ubyte"
    source_map: "data/amtrak/fastVsBg_3_10-images-idx3-ubyte"
    source_map: "data/amtrak/fastVsBg_4_10-images-idx3-ubyte"
    backend: LMDB_FILE
    batch_size: 1
  }
  transform_param {
    scale: 0.00390625
    crop_size: 182
    mean_value: 96
    mirror: false
    mirror_v: false
  }
  include: { phase: TRAIN }
}
layer {
  name: "data_fastVsBg_10"
  type: "Data"
  top: "data_fastVsBg_10"
  top: "label_fastVsBg_10"
  data_param {
    source: "data/amtrak/db_fastVsBg_10_test"
    source_map: "data/amtrak/fastVsBg_0_10-images-idx3-ubyte"
    source_map: "data/amtrak/fastVsBg_1_10-images-idx3-ubyte"
    source_map: "data/amtrak/fastVsBg_2_10-images-idx3-ubyte"
    source_map: "data/amtrak/fastVsBg_3_10-images-idx3-ubyte"
    source_map: "data/amtrak/fastVsBg_4_10-images-idx3-ubyte"
    backend: LMDB_FILE
    batch_size: 2
  }
  transform_param {
    scale: 0.00390625
    crop_size: 182
    mean_value: 96
    mirror: false
  }
  include: { phase: TEST }
}
layer {
  name: "conv1_fastVsBg_10"
  type: "Convolution"
  bottom: "data_fastVsBg_10"
  top: "conv1_fastVsBg_10"
  param {
    name: "conv1_w"
    lr_mult: 1
    lr_pre_mult: 0.01
    decay_mult: 1
  }
  param {
    name: "conv1_b"
    lr_mult: 2
    lr_pre_mult: 0.01
    decay_mult: 0
  }
  convolution_param {
    num_output: 48
    kernel_size: 9
    stride: 2
    weight_filler {
      type: "gaussian"
      std: 0.01
    }
    bias_filler {
      type: "constant"
      value: 0
    }
  }
}
layer {
  name: "pool1_fastVsBg_10"
  type: "Pooling"
  bottom: "conv1_fastVsBg_10"
  top: "pool1_fastVsBg_10"
  pooling_param {
    pool: MAX
    kernel_size: 3
    stride: 2
  }
}
layer {
  name: "norm1_fastVsBg_10"
  type: "LRN"
  bottom: "pool1_fastVsBg_10"
  top: "norm1_fastVsBg_10"
  lrn_param {
    local_size: 5
    alpha: 0.001
    beta: 0.5
    norm_region: WITHIN_CHANNEL
  }
}
layer {
  name: "conv2_fastVsBg_10"
  type: "Convolution"
  bottom: "norm1_fastVsBg_10"
  top: "conv2_fastVsBg_10"
  param {
    name: "conv2_w"
    lr_mult: 1
    lr_pre_mult: 0.01
    decay_mult: 1
  }
  param {
    name: "conv2_b"
    lr_mult: 2
    lr_pre_mult: 0.01
    decay_mult: 0
  }
  convolution_param {
    num_output: 64
    kernel_size: 5
    stride: 1
    weight_filler {
      type: "gaussian"
      std: 0.01
    }
    bias_filler {
      type: "constant"
      value: 0
    }
  }
}
layer {
  name: "relu2_fastVsBg_10"
  type: "ReLU"
  bottom: "conv2_fastVsBg_10"
  top: "conv2_fastVsBg_10"
}
layer {
  name: "pool2_fastVsBg_10"
  type: "Pooling"
  bottom: "conv2_fastVsBg_10"
  top: "pool2_fastVsBg_10"
  pooling_param {
    pool: MAX
    kernel_size: 3
    stride: 2
  }
}
layer {
  name: "conv3_fastVsBg_10"
  type: "Convolution"
  bottom: "pool2_fastVsBg_10"
  top: "conv3_fastVsBg_10"
  param {
    name: "conv3_w"
    lr_mult: 1
    lr_pre_mult: 0.01
    decay_mult: 1
  }
  param {
    name: "conv3_b"
    lr_mult: 2
    lr_pre_mult: 0.01
    decay_mult: 0
  }
  convolution_param {
    num_output: 256
    kernel_size: 5
    weight_filler {
      type: "gaussian"
      std: 0.01
    }
    bias_filler {
      type: "constant"
      value: 0
    }
  }
}
layer {
  name: "relu3_fastVsBg_10"
  type: "ReLU"
  bottom: "conv3_fastVsBg_10"
  top: "conv3_fastVsBg_10"
}
layer {
  name: "drop3_fastVsBg_10"
  type: "Dropout"
  bottom: "conv3_fastVsBg_10"
  top: "conv3_fastVsBg_10"
  dropout_param {
    dropout_ratio: 0.1
  }
}
layer {
  name: "pool3_fastVsBg_10"
  type: "Pooling"
  bottom: "conv3_fastVsBg_10"
  top: "pool3_fastVsBg_10"
  pooling_param {
    pool: MAX
    kernel_size: 3
    stride: 2
  }
}
layer {
  name: "conv4_fastVsBg_10"
  type: "Convolution"
  bottom: "pool3_fastVsBg_10"
  top: "conv4_fastVsBg_10"
  propagate_down: false
  param {
    name: "conv4_w"
    lr_mult: 1
    lr_pre_mult: 0.02
    decay_mult: 10
  }
  param {
    name: "conv4_b"
    lr_mult: 2
    lr_pre_mult: 0.02
    decay_mult: 0
  }
  convolution_param {
    num_output: 512
    kernel_size: 5
    weight_filler {
      type: "gaussian"
      std: 0.01
    }
    bias_filler {
      type: "constant"
      value: 0
    }
  }
}
layer {
  name: "relu4_fastVsBg_10"
  type: "ReLU"
  bottom: "conv4_fastVsBg_10"
  top: "conv4_fastVsBg_10"
}
layer {
  name: "drop4_fastVsBg_10"
  type: "Dropout"
  bottom: "conv4_fastVsBg_10"
  top: "conv4_fastVsBg_10"
  dropout_param {
    dropout_ratio: 0.2
  }
}
layer {
  name: "pool4_fastVsBg_10"
  type: "Pooling"
  bottom: "conv4_fastVsBg_10"
  top: "pool4_fastVsBg_10"
  pooling_param {
    pool: MAX
    kernel_size: 3
    stride: 2
  }
}
layer {
  name: "ip5_fastVsBg_10"
  type: "Convolution"
  bottom: "pool4_fastVsBg_10"
  top: "ip5_fastVsBg_10"
  param {
    name: "ip5_fastVsBg_10_w"
    lr_mult: 0.1
    decay_mult: 1000
  }
  param {
    name: "ip5_fastVsBg_10_b"
    lr_mult: 0.2
    decay_mult: 0
  }
  convolution_param {
    num_output: 2
    kernel_size: 1
    weight_filler {
      type: "gaussian"
      std: 0.01
    }
    bias_filler {
      type: "constant"
      value: 0
    }
  }
}
layer {
  name: "accuracy_fastVsBg_10"
  type: "Accuracy"
  bottom: "ip5_fastVsBg_10"
  bottom: "label_fastVsBg_10"
  top: "accuracy_fastVsBg_10"
  include: { phase: TEST }
}
layer {
  name: "loss_fastVsBg_10"
  type: "HingeLoss"
  bottom: "ip5_fastVsBg_10"
  bottom: "label_fastVsBg_10"
#  top: "loss_fastVsBg_10"
}

# Task fastVsBg, class 11
layer {
  name: "data_fastVsBg_11"
  type: "Data"
  top: "data_fastVsBg_11"
  top: "label_fastVsBg_11"
  data_param {
    source: "data/amtrak/db_fastVsBg_11_train"
    source_map: "data/amtrak/fastVsBg_0_11-images-idx3-ubyte"
    source_map: "data/amtrak/fastVsBg_1_11-images-idx3-ubyte"
    source_map: "data/amtrak/fastVsBg_2_11-images-idx3-ubyte"
    source_map: "data/amtrak/fastVsBg_3_11-images-idx3-ubyte"
    source_map: "data/amtrak/fastVsBg_4_11-images-idx3-ubyte"
    backend: LMDB_FILE
    batch_size: 1
  }
  transform_param {
    scale: 0.00390625
    crop_size: 182
    mean_value: 96
    mirror: false
    mirror_v: false
  }
  include: { phase: TRAIN }
}
layer {
  name: "data_fastVsBg_11"
  type: "Data"
  top: "data_fastVsBg_11"
  top: "label_fastVsBg_11"
  data_param {
    source: "data/amtrak/db_fastVsBg_11_test"
    source_map: "data/amtrak/fastVsBg_0_11-images-idx3-ubyte"
    source_map: "data/amtrak/fastVsBg_1_11-images-idx3-ubyte"
    source_map: "data/amtrak/fastVsBg_2_11-images-idx3-ubyte"
    source_map: "data/amtrak/fastVsBg_3_11-images-idx3-ubyte"
    source_map: "data/amtrak/fastVsBg_4_11-images-idx3-ubyte"
    backend: LMDB_FILE
    batch_size: 2
  }
  transform_param {
    scale: 0.00390625
    crop_size: 182
    mean_value: 96
    mirror: false
  }
  include: { phase: TEST }
}
layer {
  name: "conv1_fastVsBg_11"
  type: "Convolution"
  bottom: "data_fastVsBg_11"
  top: "conv1_fastVsBg_11"
  param {
    name: "conv1_w"
    lr_mult: 1
    lr_pre_mult: 0.01
    decay_mult: 1
  }
  param {
    name: "conv1_b"
    lr_mult: 2
    lr_pre_mult: 0.01
    decay_mult: 0
  }
  convolution_param {
    num_output: 48
    kernel_size: 9
    stride: 2
    weight_filler {
      type: "gaussian"
      std: 0.01
    }
    bias_filler {
      type: "constant"
      value: 0
    }
  }
}
layer {
  name: "pool1_fastVsBg_11"
  type: "Pooling"
  bottom: "conv1_fastVsBg_11"
  top: "pool1_fastVsBg_11"
  pooling_param {
    pool: MAX
    kernel_size: 3
    stride: 2
  }
}
layer {
  name: "norm1_fastVsBg_11"
  type: "LRN"
  bottom: "pool1_fastVsBg_11"
  top: "norm1_fastVsBg_11"
  lrn_param {
    local_size: 5
    alpha: 0.001
    beta: 0.5
    norm_region: WITHIN_CHANNEL
  }
}
layer {
  name: "conv2_fastVsBg_11"
  type: "Convolution"
  bottom: "norm1_fastVsBg_11"
  top: "conv2_fastVsBg_11"
  param {
    name: "conv2_w"
    lr_mult: 1
    lr_pre_mult: 0.01
    decay_mult: 1
  }
  param {
    name: "conv2_b"
    lr_mult: 2
    lr_pre_mult: 0.01
    decay_mult: 0
  }
  convolution_param {
    num_output: 64
    kernel_size: 5
    stride: 1
    weight_filler {
      type: "gaussian"
      std: 0.01
    }
    bias_filler {
      type: "constant"
      value: 0
    }
  }
}
layer {
  name: "relu2_fastVsBg_11"
  type: "ReLU"
  bottom: "conv2_fastVsBg_11"
  top: "conv2_fastVsBg_11"
}
layer {
  name: "pool2_fastVsBg_11"
  type: "Pooling"
  bottom: "conv2_fastVsBg_11"
  top: "pool2_fastVsBg_11"
  pooling_param {
    pool: MAX
    kernel_size: 3
    stride: 2
  }
}
layer {
  name: "conv3_fastVsBg_11"
  type: "Convolution"
  bottom: "pool2_fastVsBg_11"
  top: "conv3_fastVsBg_11"
  param {
    name: "conv3_w"
    lr_mult: 1
    lr_pre_mult: 0.01
    decay_mult: 1
  }
  param {
    name: "conv3_b"
    lr_mult: 2
    lr_pre_mult: 0.01
    decay_mult: 0
  }
  convolution_param {
    num_output: 256
    kernel_size: 5
    weight_filler {
      type: "gaussian"
      std: 0.01
    }
    bias_filler {
      type: "constant"
      value: 0
    }
  }
}
layer {
  name: "relu3_fastVsBg_11"
  type: "ReLU"
  bottom: "conv3_fastVsBg_11"
  top: "conv3_fastVsBg_11"
}
layer {
  name: "drop3_fastVsBg_11"
  type: "Dropout"
  bottom: "conv3_fastVsBg_11"
  top: "conv3_fastVsBg_11"
  dropout_param {
    dropout_ratio: 0.1
  }
}
layer {
  name: "pool3_fastVsBg_11"
  type: "Pooling"
  bottom: "conv3_fastVsBg_11"
  top: "pool3_fastVsBg_11"
  pooling_param {
    pool: MAX
    kernel_size: 3
    stride: 2
  }
}
layer {
  name: "conv4_fastVsBg_11"
  type: "Convolution"
  bottom: "pool3_fastVsBg_11"
  top: "conv4_fastVsBg_11"
  propagate_down: false
  param {
    name: "conv4_w"
    lr_mult: 1
    lr_pre_mult: 0.02
    decay_mult: 10
  }
  param {
    name: "conv4_b"
    lr_mult: 2
    lr_pre_mult: 0.02
    decay_mult: 0
  }
  convolution_param {
    num_output: 512
    kernel_size: 5
    weight_filler {
      type: "gaussian"
      std: 0.01
    }
    bias_filler {
      type: "constant"
      value: 0
    }
  }
}
layer {
  name: "relu4_fastVsBg_11"
  type: "ReLU"
  bottom: "conv4_fastVsBg_11"
  top: "conv4_fastVsBg_11"
}
layer {
  name: "drop4_fastVsBg_11"
  type: "Dropout"
  bottom: "conv4_fastVsBg_11"
  top: "conv4_fastVsBg_11"
  dropout_param {
    dropout_ratio: 0.2
  }
}
layer {
  name: "pool4_fastVsBg_11"
  type: "Pooling"
  bottom: "conv4_fastVsBg_11"
  top: "pool4_fastVsBg_11"
  pooling_param {
    pool: MAX
    kernel_size: 3
    stride: 2
  }
}
layer {
  name: "ip5_fastVsBg_11"
  type: "Convolution"
  bottom: "pool4_fastVsBg_11"
  top: "ip5_fastVsBg_11"
  param {
    name: "ip5_fastVsBg_11_w"
    lr_mult: 0.1
    decay_mult: 1000
  }
  param {
    name: "ip5_fastVsBg_11_b"
    lr_mult: 0.2
    decay_mult: 0
  }
  convolution_param {
    num_output: 2
    kernel_size: 1
    weight_filler {
      type: "gaussian"
      std: 0.01
    }
    bias_filler {
      type: "constant"
      value: 0
    }
  }
}
layer {
  name: "accuracy_fastVsBg_11"
  type: "Accuracy"
  bottom: "ip5_fastVsBg_11"
  bottom: "label_fastVsBg_11"
  top: "accuracy_fastVsBg_11"
  include: { phase: TEST }
}
layer {
  name: "loss_fastVsBg_11"
  type: "HingeLoss"
  bottom: "ip5_fastVsBg_11"
  bottom: "label_fastVsBg_11"
#  top: "loss_fastVsBg_11"
}

# Task fastVsBg, class 12
layer {
  name: "data_fastVsBg_12"
  type: "Data"
  top: "data_fastVsBg_12"
  top: "label_fastVsBg_12"
  data_param {
    source: "data/amtrak/db_fastVsBg_12_train"
    source_map: "data/amtrak/fastVsBg_0_12-images-idx3-ubyte"
    source_map: "data/amtrak/fastVsBg_1_12-images-idx3-ubyte"
    source_map: "data/amtrak/fastVsBg_2_12-images-idx3-ubyte"
    source_map: "data/amtrak/fastVsBg_3_12-images-idx3-ubyte"
    source_map: "data/amtrak/fastVsBg_4_12-images-idx3-ubyte"
    backend: LMDB_FILE
    batch_size: 1
  }
  transform_param {
    scale: 0.00390625
    crop_size: 182
    mean_value: 96
    mirror: false
    mirror_v: false
  }
  include: { phase: TRAIN }
}
layer {
  name: "data_fastVsBg_12"
  type: "Data"
  top: "data_fastVsBg_12"
  top: "label_fastVsBg_12"
  data_param {
    source: "data/amtrak/db_fastVsBg_12_test"
    source_map: "data/amtrak/fastVsBg_0_12-images-idx3-ubyte"
    source_map: "data/amtrak/fastVsBg_1_12-images-idx3-ubyte"
    source_map: "data/amtrak/fastVsBg_2_12-images-idx3-ubyte"
    source_map: "data/amtrak/fastVsBg_3_12-images-idx3-ubyte"
    source_map: "data/amtrak/fastVsBg_4_12-images-idx3-ubyte"
    backend: LMDB_FILE
    batch_size: 2
  }
  transform_param {
    scale: 0.00390625
    crop_size: 182
    mean_value: 96
    mirror: false
  }
  include: { phase: TEST }
}
layer {
  name: "conv1_fastVsBg_12"
  type: "Convolution"
  bottom: "data_fastVsBg_12"
  top: "conv1_fastVsBg_12"
  param {
    name: "conv1_w"
    lr_mult: 1
    lr_pre_mult: 0.01
    decay_mult: 1
  }
  param {
    name: "conv1_b"
    lr_mult: 2
    lr_pre_mult: 0.01
    decay_mult: 0
  }
  convolution_param {
    num_output: 48
    kernel_size: 9
    stride: 2
    weight_filler {
      type: "gaussian"
      std: 0.01
    }
    bias_filler {
      type: "constant"
      value: 0
    }
  }
}
layer {
  name: "pool1_fastVsBg_12"
  type: "Pooling"
  bottom: "conv1_fastVsBg_12"
  top: "pool1_fastVsBg_12"
  pooling_param {
    pool: MAX
    kernel_size: 3
    stride: 2
  }
}
layer {
  name: "norm1_fastVsBg_12"
  type: "LRN"
  bottom: "pool1_fastVsBg_12"
  top: "norm1_fastVsBg_12"
  lrn_param {
    local_size: 5
    alpha: 0.001
    beta: 0.5
    norm_region: WITHIN_CHANNEL
  }
}
layer {
  name: "conv2_fastVsBg_12"
  type: "Convolution"
  bottom: "norm1_fastVsBg_12"
  top: "conv2_fastVsBg_12"
  param {
    name: "conv2_w"
    lr_mult: 1
    lr_pre_mult: 0.01
    decay_mult: 1
  }
  param {
    name: "conv2_b"
    lr_mult: 2
    lr_pre_mult: 0.01
    decay_mult: 0
  }
  convolution_param {
    num_output: 64
    kernel_size: 5
    stride: 1
    weight_filler {
      type: "gaussian"
      std: 0.01
    }
    bias_filler {
      type: "constant"
      value: 0
    }
  }
}
layer {
  name: "relu2_fastVsBg_12"
  type: "ReLU"
  bottom: "conv2_fastVsBg_12"
  top: "conv2_fastVsBg_12"
}
layer {
  name: "pool2_fastVsBg_12"
  type: "Pooling"
  bottom: "conv2_fastVsBg_12"
  top: "pool2_fastVsBg_12"
  pooling_param {
    pool: MAX
    kernel_size: 3
    stride: 2
  }
}
layer {
  name: "conv3_fastVsBg_12"
  type: "Convolution"
  bottom: "pool2_fastVsBg_12"
  top: "conv3_fastVsBg_12"
  param {
    name: "conv3_w"
    lr_mult: 1
    lr_pre_mult: 0.01
    decay_mult: 1
  }
  param {
    name: "conv3_b"
    lr_mult: 2
    lr_pre_mult: 0.01
    decay_mult: 0
  }
  convolution_param {
    num_output: 256
    kernel_size: 5
    weight_filler {
      type: "gaussian"
      std: 0.01
    }
    bias_filler {
      type: "constant"
      value: 0
    }
  }
}
layer {
  name: "relu3_fastVsBg_12"
  type: "ReLU"
  bottom: "conv3_fastVsBg_12"
  top: "conv3_fastVsBg_12"
}
layer {
  name: "drop3_fastVsBg_12"
  type: "Dropout"
  bottom: "conv3_fastVsBg_12"
  top: "conv3_fastVsBg_12"
  dropout_param {
    dropout_ratio: 0.1
  }
}
layer {
  name: "pool3_fastVsBg_12"
  type: "Pooling"
  bottom: "conv3_fastVsBg_12"
  top: "pool3_fastVsBg_12"
  pooling_param {
    pool: MAX
    kernel_size: 3
    stride: 2
  }
}
layer {
  name: "conv4_fastVsBg_12"
  type: "Convolution"
  bottom: "pool3_fastVsBg_12"
  top: "conv4_fastVsBg_12"
  propagate_down: false
  param {
    name: "conv4_w"
    lr_mult: 1
    lr_pre_mult: 0.02
    decay_mult: 10
  }
  param {
    name: "conv4_b"
    lr_mult: 2
    lr_pre_mult: 0.02
    decay_mult: 0
  }
  convolution_param {
    num_output: 512
    kernel_size: 5
    weight_filler {
      type: "gaussian"
      std: 0.01
    }
    bias_filler {
      type: "constant"
      value: 0
    }
  }
}
layer {
  name: "relu4_fastVsBg_12"
  type: "ReLU"
  bottom: "conv4_fastVsBg_12"
  top: "conv4_fastVsBg_12"
}
layer {
  name: "drop4_fastVsBg_12"
  type: "Dropout"
  bottom: "conv4_fastVsBg_12"
  top: "conv4_fastVsBg_12"
  dropout_param {
    dropout_ratio: 0.2
  }
}
layer {
  name: "pool4_fastVsBg_12"
  type: "Pooling"
  bottom: "conv4_fastVsBg_12"
  top: "pool4_fastVsBg_12"
  pooling_param {
    pool: MAX
    kernel_size: 3
    stride: 2
  }
}
layer {
  name: "ip5_fastVsBg_12"
  type: "Convolution"
  bottom: "pool4_fastVsBg_12"
  top: "ip5_fastVsBg_12"
  param {
    name: "ip5_fastVsBg_12_w"
    lr_mult: 0.1
    decay_mult: 1000
  }
  param {
    name: "ip5_fastVsBg_12_b"
    lr_mult: 0.2
    decay_mult: 0
  }
  convolution_param {
    num_output: 2
    kernel_size: 1
    weight_filler {
      type: "gaussian"
      std: 0.01
    }
    bias_filler {
      type: "constant"
      value: 0
    }
  }
}
layer {
  name: "accuracy_fastVsBg_12"
  type: "Accuracy"
  bottom: "ip5_fastVsBg_12"
  bottom: "label_fastVsBg_12"
  top: "accuracy_fastVsBg_12"
  include: { phase: TEST }
}
layer {
  name: "loss_fastVsBg_12"
  type: "HingeLoss"
  bottom: "ip5_fastVsBg_12"
  bottom: "label_fastVsBg_12"
#  top: "loss_fastVsBg_12"
}

# Task fastVsBg, class 13
layer {
  name: "data_fastVsBg_13"
  type: "Data"
  top: "data_fastVsBg_13"
  top: "label_fastVsBg_13"
  data_param {
    source: "data/amtrak/db_fastVsBg_13_train"
    source_map: "data/amtrak/fastVsBg_0_13-images-idx3-ubyte"
    source_map: "data/amtrak/fastVsBg_1_13-images-idx3-ubyte"
    source_map: "data/amtrak/fastVsBg_2_13-images-idx3-ubyte"
    source_map: "data/amtrak/fastVsBg_3_13-images-idx3-ubyte"
    source_map: "data/amtrak/fastVsBg_4_13-images-idx3-ubyte"
    backend: LMDB_FILE
    batch_size: 1
  }
  transform_param {
    scale: 0.00390625
    crop_size: 182
    mean_value: 96
    mirror: false
    mirror_v: false
  }
  include: { phase: TRAIN }
}
layer {
  name: "data_fastVsBg_13"
  type: "Data"
  top: "data_fastVsBg_13"
  top: "label_fastVsBg_13"
  data_param {
    source: "data/amtrak/db_fastVsBg_13_test"
    source_map: "data/amtrak/fastVsBg_0_13-images-idx3-ubyte"
    source_map: "data/amtrak/fastVsBg_1_13-images-idx3-ubyte"
    source_map: "data/amtrak/fastVsBg_2_13-images-idx3-ubyte"
    source_map: "data/amtrak/fastVsBg_3_13-images-idx3-ubyte"
    source_map: "data/amtrak/fastVsBg_4_13-images-idx3-ubyte"
    backend: LMDB_FILE
    batch_size: 2
  }
  transform_param {
    scale: 0.00390625
    crop_size: 182
    mean_value: 96
    mirror: false
  }
  include: { phase: TEST }
}
layer {
  name: "conv1_fastVsBg_13"
  type: "Convolution"
  bottom: "data_fastVsBg_13"
  top: "conv1_fastVsBg_13"
  param {
    name: "conv1_w"
    lr_mult: 1
    lr_pre_mult: 0.01
    decay_mult: 1
  }
  param {
    name: "conv1_b"
    lr_mult: 2
    lr_pre_mult: 0.01
    decay_mult: 0
  }
  convolution_param {
    num_output: 48
    kernel_size: 9
    stride: 2
    weight_filler {
      type: "gaussian"
      std: 0.01
    }
    bias_filler {
      type: "constant"
      value: 0
    }
  }
}
layer {
  name: "pool1_fastVsBg_13"
  type: "Pooling"
  bottom: "conv1_fastVsBg_13"
  top: "pool1_fastVsBg_13"
  pooling_param {
    pool: MAX
    kernel_size: 3
    stride: 2
  }
}
layer {
  name: "norm1_fastVsBg_13"
  type: "LRN"
  bottom: "pool1_fastVsBg_13"
  top: "norm1_fastVsBg_13"
  lrn_param {
    local_size: 5
    alpha: 0.001
    beta: 0.5
    norm_region: WITHIN_CHANNEL
  }
}
layer {
  name: "conv2_fastVsBg_13"
  type: "Convolution"
  bottom: "norm1_fastVsBg_13"
  top: "conv2_fastVsBg_13"
  param {
    name: "conv2_w"
    lr_mult: 1
    lr_pre_mult: 0.01
    decay_mult: 1
  }
  param {
    name: "conv2_b"
    lr_mult: 2
    lr_pre_mult: 0.01
    decay_mult: 0
  }
  convolution_param {
    num_output: 64
    kernel_size: 5
    stride: 1
    weight_filler {
      type: "gaussian"
      std: 0.01
    }
    bias_filler {
      type: "constant"
      value: 0
    }
  }
}
layer {
  name: "relu2_fastVsBg_13"
  type: "ReLU"
  bottom: "conv2_fastVsBg_13"
  top: "conv2_fastVsBg_13"
}
layer {
  name: "pool2_fastVsBg_13"
  type: "Pooling"
  bottom: "conv2_fastVsBg_13"
  top: "pool2_fastVsBg_13"
  pooling_param {
    pool: MAX
    kernel_size: 3
    stride: 2
  }
}
layer {
  name: "conv3_fastVsBg_13"
  type: "Convolution"
  bottom: "pool2_fastVsBg_13"
  top: "conv3_fastVsBg_13"
  param {
    name: "conv3_w"
    lr_mult: 1
    lr_pre_mult: 0.01
    decay_mult: 1
  }
  param {
    name: "conv3_b"
    lr_mult: 2
    lr_pre_mult: 0.01
    decay_mult: 0
  }
  convolution_param {
    num_output: 256
    kernel_size: 5
    weight_filler {
      type: "gaussian"
      std: 0.01
    }
    bias_filler {
      type: "constant"
      value: 0
    }
  }
}
layer {
  name: "relu3_fastVsBg_13"
  type: "ReLU"
  bottom: "conv3_fastVsBg_13"
  top: "conv3_fastVsBg_13"
}
layer {
  name: "drop3_fastVsBg_13"
  type: "Dropout"
  bottom: "conv3_fastVsBg_13"
  top: "conv3_fastVsBg_13"
  dropout_param {
    dropout_ratio: 0.1
  }
}
layer {
  name: "pool3_fastVsBg_13"
  type: "Pooling"
  bottom: "conv3_fastVsBg_13"
  top: "pool3_fastVsBg_13"
  pooling_param {
    pool: MAX
    kernel_size: 3
    stride: 2
  }
}
layer {
  name: "conv4_fastVsBg_13"
  type: "Convolution"
  bottom: "pool3_fastVsBg_13"
  top: "conv4_fastVsBg_13"
  propagate_down: false
  param {
    name: "conv4_w"
    lr_mult: 1
    lr_pre_mult: 0.02
    decay_mult: 10
  }
  param {
    name: "conv4_b"
    lr_mult: 2
    lr_pre_mult: 0.02
    decay_mult: 0
  }
  convolution_param {
    num_output: 512
    kernel_size: 5
    weight_filler {
      type: "gaussian"
      std: 0.01
    }
    bias_filler {
      type: "constant"
      value: 0
    }
  }
}
layer {
  name: "relu4_fastVsBg_13"
  type: "ReLU"
  bottom: "conv4_fastVsBg_13"
  top: "conv4_fastVsBg_13"
}
layer {
  name: "drop4_fastVsBg_13"
  type: "Dropout"
  bottom: "conv4_fastVsBg_13"
  top: "conv4_fastVsBg_13"
  dropout_param {
    dropout_ratio: 0.2
  }
}
layer {
  name: "pool4_fastVsBg_13"
  type: "Pooling"
  bottom: "conv4_fastVsBg_13"
  top: "pool4_fastVsBg_13"
  pooling_param {
    pool: MAX
    kernel_size: 3
    stride: 2
  }
}
layer {
  name: "ip5_fastVsBg_13"
  type: "Convolution"
  bottom: "pool4_fastVsBg_13"
  top: "ip5_fastVsBg_13"
  param {
    name: "ip5_fastVsBg_13_w"
    lr_mult: 0.1
    decay_mult: 1000
  }
  param {
    name: "ip5_fastVsBg_13_b"
    lr_mult: 0.2
    decay_mult: 0
  }
  convolution_param {
    num_output: 2
    kernel_size: 1
    weight_filler {
      type: "gaussian"
      std: 0.01
    }
    bias_filler {
      type: "constant"
      value: 0
    }
  }
}
layer {
  name: "accuracy_fastVsBg_13"
  type: "Accuracy"
  bottom: "ip5_fastVsBg_13"
  bottom: "label_fastVsBg_13"
  top: "accuracy_fastVsBg_13"
  include: { phase: TEST }
}
layer {
  name: "loss_fastVsBg_13"
  type: "HingeLoss"
  bottom: "ip5_fastVsBg_13"
  bottom: "label_fastVsBg_13"
#  top: "loss_fastVsBg_13"
}

# Task fastVsBg, class 14
layer {
  name: "data_fastVsBg_14"
  type: "Data"
  top: "data_fastVsBg_14"
  top: "label_fastVsBg_14"
  data_param {
    source: "data/amtrak/db_fastVsBg_14_train"
    source_map: "data/amtrak/fastVsBg_0_14-images-idx3-ubyte"
    source_map: "data/amtrak/fastVsBg_1_14-images-idx3-ubyte"
    source_map: "data/amtrak/fastVsBg_2_14-images-idx3-ubyte"
    source_map: "data/amtrak/fastVsBg_3_14-images-idx3-ubyte"
    source_map: "data/amtrak/fastVsBg_4_14-images-idx3-ubyte"
    backend: LMDB_FILE
    batch_size: 1
  }
  transform_param {
    scale: 0.00390625
    crop_size: 182
    mean_value: 96
    mirror: false
    mirror_v: false
  }
  include: { phase: TRAIN }
}
layer {
  name: "data_fastVsBg_14"
  type: "Data"
  top: "data_fastVsBg_14"
  top: "label_fastVsBg_14"
  data_param {
    source: "data/amtrak/db_fastVsBg_14_test"
    source_map: "data/amtrak/fastVsBg_0_14-images-idx3-ubyte"
    source_map: "data/amtrak/fastVsBg_1_14-images-idx3-ubyte"
    source_map: "data/amtrak/fastVsBg_2_14-images-idx3-ubyte"
    source_map: "data/amtrak/fastVsBg_3_14-images-idx3-ubyte"
    source_map: "data/amtrak/fastVsBg_4_14-images-idx3-ubyte"
    backend: LMDB_FILE
    batch_size: 2
  }
  transform_param {
    scale: 0.00390625
    crop_size: 182
    mean_value: 96
    mirror: false
  }
  include: { phase: TEST }
}
layer {
  name: "conv1_fastVsBg_14"
  type: "Convolution"
  bottom: "data_fastVsBg_14"
  top: "conv1_fastVsBg_14"
  param {
    name: "conv1_w"
    lr_mult: 1
    lr_pre_mult: 0.01
    decay_mult: 1
  }
  param {
    name: "conv1_b"
    lr_mult: 2
    lr_pre_mult: 0.01
    decay_mult: 0
  }
  convolution_param {
    num_output: 48
    kernel_size: 9
    stride: 2
    weight_filler {
      type: "gaussian"
      std: 0.01
    }
    bias_filler {
      type: "constant"
      value: 0
    }
  }
}
layer {
  name: "pool1_fastVsBg_14"
  type: "Pooling"
  bottom: "conv1_fastVsBg_14"
  top: "pool1_fastVsBg_14"
  pooling_param {
    pool: MAX
    kernel_size: 3
    stride: 2
  }
}
layer {
  name: "norm1_fastVsBg_14"
  type: "LRN"
  bottom: "pool1_fastVsBg_14"
  top: "norm1_fastVsBg_14"
  lrn_param {
    local_size: 5
    alpha: 0.001
    beta: 0.5
    norm_region: WITHIN_CHANNEL
  }
}
layer {
  name: "conv2_fastVsBg_14"
  type: "Convolution"
  bottom: "norm1_fastVsBg_14"
  top: "conv2_fastVsBg_14"
  param {
    name: "conv2_w"
    lr_mult: 1
    lr_pre_mult: 0.01
    decay_mult: 1
  }
  param {
    name: "conv2_b"
    lr_mult: 2
    lr_pre_mult: 0.01
    decay_mult: 0
  }
  convolution_param {
    num_output: 64
    kernel_size: 5
    stride: 1
    weight_filler {
      type: "gaussian"
      std: 0.01
    }
    bias_filler {
      type: "constant"
      value: 0
    }
  }
}
layer {
  name: "relu2_fastVsBg_14"
  type: "ReLU"
  bottom: "conv2_fastVsBg_14"
  top: "conv2_fastVsBg_14"
}
layer {
  name: "pool2_fastVsBg_14"
  type: "Pooling"
  bottom: "conv2_fastVsBg_14"
  top: "pool2_fastVsBg_14"
  pooling_param {
    pool: MAX
    kernel_size: 3
    stride: 2
  }
}
layer {
  name: "conv3_fastVsBg_14"
  type: "Convolution"
  bottom: "pool2_fastVsBg_14"
  top: "conv3_fastVsBg_14"
  param {
    name: "conv3_w"
    lr_mult: 1
    lr_pre_mult: 0.01
    decay_mult: 1
  }
  param {
    name: "conv3_b"
    lr_mult: 2
    lr_pre_mult: 0.01
    decay_mult: 0
  }
  convolution_param {
    num_output: 256
    kernel_size: 5
    weight_filler {
      type: "gaussian"
      std: 0.01
    }
    bias_filler {
      type: "constant"
      value: 0
    }
  }
}
layer {
  name: "relu3_fastVsBg_14"
  type: "ReLU"
  bottom: "conv3_fastVsBg_14"
  top: "conv3_fastVsBg_14"
}
layer {
  name: "drop3_fastVsBg_14"
  type: "Dropout"
  bottom: "conv3_fastVsBg_14"
  top: "conv3_fastVsBg_14"
  dropout_param {
    dropout_ratio: 0.1
  }
}
layer {
  name: "pool3_fastVsBg_14"
  type: "Pooling"
  bottom: "conv3_fastVsBg_14"
  top: "pool3_fastVsBg_14"
  pooling_param {
    pool: MAX
    kernel_size: 3
    stride: 2
  }
}
layer {
  name: "conv4_fastVsBg_14"
  type: "Convolution"
  bottom: "pool3_fastVsBg_14"
  top: "conv4_fastVsBg_14"
  propagate_down: false
  param {
    name: "conv4_w"
    lr_mult: 1
    lr_pre_mult: 0.02
    decay_mult: 10
  }
  param {
    name: "conv4_b"
    lr_mult: 2
    lr_pre_mult: 0.02
    decay_mult: 0
  }
  convolution_param {
    num_output: 512
    kernel_size: 5
    weight_filler {
      type: "gaussian"
      std: 0.01
    }
    bias_filler {
      type: "constant"
      value: 0
    }
  }
}
layer {
  name: "relu4_fastVsBg_14"
  type: "ReLU"
  bottom: "conv4_fastVsBg_14"
  top: "conv4_fastVsBg_14"
}
layer {
  name: "drop4_fastVsBg_14"
  type: "Dropout"
  bottom: "conv4_fastVsBg_14"
  top: "conv4_fastVsBg_14"
  dropout_param {
    dropout_ratio: 0.2
  }
}
layer {
  name: "pool4_fastVsBg_14"
  type: "Pooling"
  bottom: "conv4_fastVsBg_14"
  top: "pool4_fastVsBg_14"
  pooling_param {
    pool: MAX
    kernel_size: 3
    stride: 2
  }
}
layer {
  name: "ip5_fastVsBg_14"
  type: "Convolution"
  bottom: "pool4_fastVsBg_14"
  top: "ip5_fastVsBg_14"
  param {
    name: "ip5_fastVsBg_14_w"
    lr_mult: 0.1
    decay_mult: 1000
  }
  param {
    name: "ip5_fastVsBg_14_b"
    lr_mult: 0.2
    decay_mult: 0
  }
  convolution_param {
    num_output: 2
    kernel_size: 1
    weight_filler {
      type: "gaussian"
      std: 0.01
    }
    bias_filler {
      type: "constant"
      value: 0
    }
  }
}
layer {
  name: "accuracy_fastVsBg_14"
  type: "Accuracy"
  bottom: "ip5_fastVsBg_14"
  bottom: "label_fastVsBg_14"
  top: "accuracy_fastVsBg_14"
  include: { phase: TEST }
}
layer {
  name: "loss_fastVsBg_14"
  type: "HingeLoss"
  bottom: "ip5_fastVsBg_14"
  bottom: "label_fastVsBg_14"
#  top: "loss_fastVsBg_14"
}

# Task fastVsBg, class 15
layer {
  name: "data_fastVsBg_15"
  type: "Data"
  top: "data_fastVsBg_15"
  top: "label_fastVsBg_15"
  data_param {
    source: "data/amtrak/db_fastVsBg_15_train"
    source_map: "data/amtrak/fastVsBg_0_15-images-idx3-ubyte"
    source_map: "data/amtrak/fastVsBg_1_15-images-idx3-ubyte"
    source_map: "data/amtrak/fastVsBg_2_15-images-idx3-ubyte"
    source_map: "data/amtrak/fastVsBg_3_15-images-idx3-ubyte"
    source_map: "data/amtrak/fastVsBg_4_15-images-idx3-ubyte"
    backend: LMDB_FILE
    batch_size: 1
  }
  transform_param {
    scale: 0.00390625
    crop_size: 182
    mean_value: 96
    mirror: false
    mirror_v: false
  }
  include: { phase: TRAIN }
}
layer {
  name: "data_fastVsBg_15"
  type: "Data"
  top: "data_fastVsBg_15"
  top: "label_fastVsBg_15"
  data_param {
    source: "data/amtrak/db_fastVsBg_15_test"
    source_map: "data/amtrak/fastVsBg_0_15-images-idx3-ubyte"
    source_map: "data/amtrak/fastVsBg_1_15-images-idx3-ubyte"
    source_map: "data/amtrak/fastVsBg_2_15-images-idx3-ubyte"
    source_map: "data/amtrak/fastVsBg_3_15-images-idx3-ubyte"
    source_map: "data/amtrak/fastVsBg_4_15-images-idx3-ubyte"
    backend: LMDB_FILE
    batch_size: 2
  }
  transform_param {
    scale: 0.00390625
    crop_size: 182
    mean_value: 96
    mirror: false
  }
  include: { phase: TEST }
}
layer {
  name: "conv1_fastVsBg_15"
  type: "Convolution"
  bottom: "data_fastVsBg_15"
  top: "conv1_fastVsBg_15"
  param {
    name: "conv1_w"
    lr_mult: 1
    lr_pre_mult: 0.01
    decay_mult: 1
  }
  param {
    name: "conv1_b"
    lr_mult: 2
    lr_pre_mult: 0.01
    decay_mult: 0
  }
  convolution_param {
    num_output: 48
    kernel_size: 9
    stride: 2
    weight_filler {
      type: "gaussian"
      std: 0.01
    }
    bias_filler {
      type: "constant"
      value: 0
    }
  }
}
layer {
  name: "pool1_fastVsBg_15"
  type: "Pooling"
  bottom: "conv1_fastVsBg_15"
  top: "pool1_fastVsBg_15"
  pooling_param {
    pool: MAX
    kernel_size: 3
    stride: 2
  }
}
layer {
  name: "norm1_fastVsBg_15"
  type: "LRN"
  bottom: "pool1_fastVsBg_15"
  top: "norm1_fastVsBg_15"
  lrn_param {
    local_size: 5
    alpha: 0.001
    beta: 0.5
    norm_region: WITHIN_CHANNEL
  }
}
layer {
  name: "conv2_fastVsBg_15"
  type: "Convolution"
  bottom: "norm1_fastVsBg_15"
  top: "conv2_fastVsBg_15"
  param {
    name: "conv2_w"
    lr_mult: 1
    lr_pre_mult: 0.01
    decay_mult: 1
  }
  param {
    name: "conv2_b"
    lr_mult: 2
    lr_pre_mult: 0.01
    decay_mult: 0
  }
  convolution_param {
    num_output: 64
    kernel_size: 5
    stride: 1
    weight_filler {
      type: "gaussian"
      std: 0.01
    }
    bias_filler {
      type: "constant"
      value: 0
    }
  }
}
layer {
  name: "relu2_fastVsBg_15"
  type: "ReLU"
  bottom: "conv2_fastVsBg_15"
  top: "conv2_fastVsBg_15"
}
layer {
  name: "pool2_fastVsBg_15"
  type: "Pooling"
  bottom: "conv2_fastVsBg_15"
  top: "pool2_fastVsBg_15"
  pooling_param {
    pool: MAX
    kernel_size: 3
    stride: 2
  }
}
layer {
  name: "conv3_fastVsBg_15"
  type: "Convolution"
  bottom: "pool2_fastVsBg_15"
  top: "conv3_fastVsBg_15"
  param {
    name: "conv3_w"
    lr_mult: 1
    lr_pre_mult: 0.01
    decay_mult: 1
  }
  param {
    name: "conv3_b"
    lr_mult: 2
    lr_pre_mult: 0.01
    decay_mult: 0
  }
  convolution_param {
    num_output: 256
    kernel_size: 5
    weight_filler {
      type: "gaussian"
      std: 0.01
    }
    bias_filler {
      type: "constant"
      value: 0
    }
  }
}
layer {
  name: "relu3_fastVsBg_15"
  type: "ReLU"
  bottom: "conv3_fastVsBg_15"
  top: "conv3_fastVsBg_15"
}
layer {
  name: "drop3_fastVsBg_15"
  type: "Dropout"
  bottom: "conv3_fastVsBg_15"
  top: "conv3_fastVsBg_15"
  dropout_param {
    dropout_ratio: 0.1
  }
}
layer {
  name: "pool3_fastVsBg_15"
  type: "Pooling"
  bottom: "conv3_fastVsBg_15"
  top: "pool3_fastVsBg_15"
  pooling_param {
    pool: MAX
    kernel_size: 3
    stride: 2
  }
}
layer {
  name: "conv4_fastVsBg_15"
  type: "Convolution"
  bottom: "pool3_fastVsBg_15"
  top: "conv4_fastVsBg_15"
  propagate_down: false
  param {
    name: "conv4_w"
    lr_mult: 1
    lr_pre_mult: 0.02
    decay_mult: 10
  }
  param {
    name: "conv4_b"
    lr_mult: 2
    lr_pre_mult: 0.02
    decay_mult: 0
  }
  convolution_param {
    num_output: 512
    kernel_size: 5
    weight_filler {
      type: "gaussian"
      std: 0.01
    }
    bias_filler {
      type: "constant"
      value: 0
    }
  }
}
layer {
  name: "relu4_fastVsBg_15"
  type: "ReLU"
  bottom: "conv4_fastVsBg_15"
  top: "conv4_fastVsBg_15"
}
layer {
  name: "drop4_fastVsBg_15"
  type: "Dropout"
  bottom: "conv4_fastVsBg_15"
  top: "conv4_fastVsBg_15"
  dropout_param {
    dropout_ratio: 0.2
  }
}
layer {
  name: "pool4_fastVsBg_15"
  type: "Pooling"
  bottom: "conv4_fastVsBg_15"
  top: "pool4_fastVsBg_15"
  pooling_param {
    pool: MAX
    kernel_size: 3
    stride: 2
  }
}
layer {
  name: "ip5_fastVsBg_15"
  type: "Convolution"
  bottom: "pool4_fastVsBg_15"
  top: "ip5_fastVsBg_15"
  param {
    name: "ip5_fastVsBg_15_w"
    lr_mult: 0.1
    decay_mult: 1000
  }
  param {
    name: "ip5_fastVsBg_15_b"
    lr_mult: 0.2
    decay_mult: 0
  }
  convolution_param {
    num_output: 2
    kernel_size: 1
    weight_filler {
      type: "gaussian"
      std: 0.01
    }
    bias_filler {
      type: "constant"
      value: 0
    }
  }
}
layer {
  name: "accuracy_fastVsBg_15"
  type: "Accuracy"
  bottom: "ip5_fastVsBg_15"
  bottom: "label_fastVsBg_15"
  top: "accuracy_fastVsBg_15"
  include: { phase: TEST }
}
layer {
  name: "loss_fastVsBg_15"
  type: "HingeLoss"
  bottom: "ip5_fastVsBg_15"
  bottom: "label_fastVsBg_15"
#  top: "loss_fastVsBg_15"
}

# Task fastVsFast, class 00
layer {
  name: "data_fastVsFast_00"
  type: "Data"
  top: "data_fastVsFast_00"
  top: "label_fastVsFast_00"
  data_param {
    source: "data/amtrak/db_fastVsFast_00_train"
    source_map: "data/amtrak/fastVsFast_0_00-images-idx3-ubyte"
    source_map: "data/amtrak/fastVsFast_1_00-images-idx3-ubyte"
    source_map: "data/amtrak/fastVsFast_2_00-images-idx3-ubyte"
    source_map: "data/amtrak/fastVsFast_3_00-images-idx3-ubyte"
    source_map: "data/amtrak/fastVsFast_4_00-images-idx3-ubyte"
    backend: LMDB_FILE
    batch_size: 1
  }
  transform_param {
    scale: 0.00390625
    crop_size: 182
    mean_value: 96
    mirror: false
    mirror_v: false
  }
  include: { phase: TRAIN }
}
layer {
  name: "data_fastVsFast_00"
  type: "Data"
  top: "data_fastVsFast_00"
  top: "label_fastVsFast_00"
  data_param {
    source: "data/amtrak/db_fastVsFast_00_test"
    source_map: "data/amtrak/fastVsFast_0_00-images-idx3-ubyte"
    source_map: "data/amtrak/fastVsFast_1_00-images-idx3-ubyte"
    source_map: "data/amtrak/fastVsFast_2_00-images-idx3-ubyte"
    source_map: "data/amtrak/fastVsFast_3_00-images-idx3-ubyte"
    source_map: "data/amtrak/fastVsFast_4_00-images-idx3-ubyte"
    backend: LMDB_FILE
    batch_size: 2
  }
  transform_param {
    scale: 0.00390625
    crop_size: 182
    mean_value: 96
    mirror: false
  }
  include: { phase: TEST }
}
layer {
  name: "conv1_fastVsFast_00"
  type: "Convolution"
  bottom: "data_fastVsFast_00"
  top: "conv1_fastVsFast_00"
  param {
    name: "conv1_w"
    lr_mult: 1
    lr_pre_mult: 0.01
    decay_mult: 1
  }
  param {
    name: "conv1_b"
    lr_mult: 2
    lr_pre_mult: 0.01
    decay_mult: 0
  }
  convolution_param {
    num_output: 48
    kernel_size: 9
    stride: 2
    weight_filler {
      type: "gaussian"
      std: 0.01
    }
    bias_filler {
      type: "constant"
      value: 0
    }
  }
}
layer {
  name: "pool1_fastVsFast_00"
  type: "Pooling"
  bottom: "conv1_fastVsFast_00"
  top: "pool1_fastVsFast_00"
  pooling_param {
    pool: MAX
    kernel_size: 3
    stride: 2
  }
}
layer {
  name: "norm1_fastVsFast_00"
  type: "LRN"
  bottom: "pool1_fastVsFast_00"
  top: "norm1_fastVsFast_00"
  lrn_param {
    local_size: 5
    alpha: 0.001
    beta: 0.5
    norm_region: WITHIN_CHANNEL
  }
}
layer {
  name: "conv2_fastVsFast_00"
  type: "Convolution"
  bottom: "norm1_fastVsFast_00"
  top: "conv2_fastVsFast_00"
  param {
    name: "conv2_w"
    lr_mult: 1
    lr_pre_mult: 0.01
    decay_mult: 1
  }
  param {
    name: "conv2_b"
    lr_mult: 2
    lr_pre_mult: 0.01
    decay_mult: 0
  }
  convolution_param {
    num_output: 64
    kernel_size: 5
    stride: 1
    weight_filler {
      type: "gaussian"
      std: 0.01
    }
    bias_filler {
      type: "constant"
      value: 0
    }
  }
}
layer {
  name: "relu2_fastVsFast_00"
  type: "ReLU"
  bottom: "conv2_fastVsFast_00"
  top: "conv2_fastVsFast_00"
}
layer {
  name: "pool2_fastVsFast_00"
  type: "Pooling"
  bottom: "conv2_fastVsFast_00"
  top: "pool2_fastVsFast_00"
  pooling_param {
    pool: MAX
    kernel_size: 3
    stride: 2
  }
}
layer {
  name: "conv3_fastVsFast_00"
  type: "Convolution"
  bottom: "pool2_fastVsFast_00"
  top: "conv3_fastVsFast_00"
  param {
    name: "conv3_w"
    lr_mult: 1
    lr_pre_mult: 0.01
    decay_mult: 1
  }
  param {
    name: "conv3_b"
    lr_mult: 2
    lr_pre_mult: 0.01
    decay_mult: 0
  }
  convolution_param {
    num_output: 256
    kernel_size: 5
    weight_filler {
      type: "gaussian"
      std: 0.01
    }
    bias_filler {
      type: "constant"
      value: 0
    }
  }
}
layer {
  name: "relu3_fastVsFast_00"
  type: "ReLU"
  bottom: "conv3_fastVsFast_00"
  top: "conv3_fastVsFast_00"
}
layer {
  name: "drop3_fastVsFast_00"
  type: "Dropout"
  bottom: "conv3_fastVsFast_00"
  top: "conv3_fastVsFast_00"
  dropout_param {
    dropout_ratio: 0.1
  }
}
layer {
  name: "pool3_fastVsFast_00"
  type: "Pooling"
  bottom: "conv3_fastVsFast_00"
  top: "pool3_fastVsFast_00"
  pooling_param {
    pool: MAX
    kernel_size: 3
    stride: 2
  }
}
layer {
  name: "conv4_fastVsFast_00"
  type: "Convolution"
  bottom: "pool3_fastVsFast_00"
  top: "conv4_fastVsFast_00"
  propagate_down: false
  param {
    name: "conv4_w"
    lr_mult: 1
    lr_pre_mult: 0.02
    decay_mult: 10
  }
  param {
    name: "conv4_b"
    lr_mult: 2
    lr_pre_mult: 0.02
    decay_mult: 0
  }
  convolution_param {
    num_output: 512
    kernel_size: 5
    weight_filler {
      type: "gaussian"
      std: 0.01
    }
    bias_filler {
      type: "constant"
      value: 0
    }
  }
}
layer {
  name: "relu4_fastVsFast_00"
  type: "ReLU"
  bottom: "conv4_fastVsFast_00"
  top: "conv4_fastVsFast_00"
}
layer {
  name: "drop4_fastVsFast_00"
  type: "Dropout"
  bottom: "conv4_fastVsFast_00"
  top: "conv4_fastVsFast_00"
  dropout_param {
    dropout_ratio: 0.2
  }
}
layer {
  name: "pool4_fastVsFast_00"
  type: "Pooling"
  bottom: "conv4_fastVsFast_00"
  top: "pool4_fastVsFast_00"
  pooling_param {
    pool: MAX
    kernel_size: 3
    stride: 2
  }
}
layer {
  name: "ip5_fastVsFast_00"
  type: "Convolution"
  bottom: "pool4_fastVsFast_00"
  top: "ip5_fastVsFast_00"
  param {
    name: "ip5_fastVsFast_00_w"
    lr_mult: 0.1
    decay_mult: 1000
  }
  param {
    name: "ip5_fastVsFast_00_b"
    lr_mult: 0.2
    decay_mult: 0
  }
  convolution_param {
    num_output: 2
    kernel_size: 1
    weight_filler {
      type: "gaussian"
      std: 0.01
    }
    bias_filler {
      type: "constant"
      value: 0
    }
  }
}
layer {
  name: "accuracy_fastVsFast_00"
  type: "Accuracy"
  bottom: "ip5_fastVsFast_00"
  bottom: "label_fastVsFast_00"
  top: "accuracy_fastVsFast_00"
  include: { phase: TEST }
}
layer {
  name: "loss_fastVsFast_00"
  type: "HingeLoss"
  bottom: "ip5_fastVsFast_00"
  bottom: "label_fastVsFast_00"
#  top: "loss_fastVsFast_00"
}

# Task fastVsFast, class 01
layer {
  name: "data_fastVsFast_01"
  type: "Data"
  top: "data_fastVsFast_01"
  top: "label_fastVsFast_01"
  data_param {
    source: "data/amtrak/db_fastVsFast_01_train"
    source_map: "data/amtrak/fastVsFast_0_01-images-idx3-ubyte"
    source_map: "data/amtrak/fastVsFast_1_01-images-idx3-ubyte"
    source_map: "data/amtrak/fastVsFast_2_01-images-idx3-ubyte"
    source_map: "data/amtrak/fastVsFast_3_01-images-idx3-ubyte"
    source_map: "data/amtrak/fastVsFast_4_01-images-idx3-ubyte"
    backend: LMDB_FILE
    batch_size: 1
  }
  transform_param {
    scale: 0.00390625
    crop_size: 182
    mean_value: 96
    mirror: false
    mirror_v: false
  }
  include: { phase: TRAIN }
}
layer {
  name: "data_fastVsFast_01"
  type: "Data"
  top: "data_fastVsFast_01"
  top: "label_fastVsFast_01"
  data_param {
    source: "data/amtrak/db_fastVsFast_01_test"
    source_map: "data/amtrak/fastVsFast_0_01-images-idx3-ubyte"
    source_map: "data/amtrak/fastVsFast_1_01-images-idx3-ubyte"
    source_map: "data/amtrak/fastVsFast_2_01-images-idx3-ubyte"
    source_map: "data/amtrak/fastVsFast_3_01-images-idx3-ubyte"
    source_map: "data/amtrak/fastVsFast_4_01-images-idx3-ubyte"
    backend: LMDB_FILE
    batch_size: 2
  }
  transform_param {
    scale: 0.00390625
    crop_size: 182
    mean_value: 96
    mirror: false
  }
  include: { phase: TEST }
}
layer {
  name: "conv1_fastVsFast_01"
  type: "Convolution"
  bottom: "data_fastVsFast_01"
  top: "conv1_fastVsFast_01"
  param {
    name: "conv1_w"
    lr_mult: 1
    lr_pre_mult: 0.01
    decay_mult: 1
  }
  param {
    name: "conv1_b"
    lr_mult: 2
    lr_pre_mult: 0.01
    decay_mult: 0
  }
  convolution_param {
    num_output: 48
    kernel_size: 9
    stride: 2
    weight_filler {
      type: "gaussian"
      std: 0.01
    }
    bias_filler {
      type: "constant"
      value: 0
    }
  }
}
layer {
  name: "pool1_fastVsFast_01"
  type: "Pooling"
  bottom: "conv1_fastVsFast_01"
  top: "pool1_fastVsFast_01"
  pooling_param {
    pool: MAX
    kernel_size: 3
    stride: 2
  }
}
layer {
  name: "norm1_fastVsFast_01"
  type: "LRN"
  bottom: "pool1_fastVsFast_01"
  top: "norm1_fastVsFast_01"
  lrn_param {
    local_size: 5
    alpha: 0.001
    beta: 0.5
    norm_region: WITHIN_CHANNEL
  }
}
layer {
  name: "conv2_fastVsFast_01"
  type: "Convolution"
  bottom: "norm1_fastVsFast_01"
  top: "conv2_fastVsFast_01"
  param {
    name: "conv2_w"
    lr_mult: 1
    lr_pre_mult: 0.01
    decay_mult: 1
  }
  param {
    name: "conv2_b"
    lr_mult: 2
    lr_pre_mult: 0.01
    decay_mult: 0
  }
  convolution_param {
    num_output: 64
    kernel_size: 5
    stride: 1
    weight_filler {
      type: "gaussian"
      std: 0.01
    }
    bias_filler {
      type: "constant"
      value: 0
    }
  }
}
layer {
  name: "relu2_fastVsFast_01"
  type: "ReLU"
  bottom: "conv2_fastVsFast_01"
  top: "conv2_fastVsFast_01"
}
layer {
  name: "pool2_fastVsFast_01"
  type: "Pooling"
  bottom: "conv2_fastVsFast_01"
  top: "pool2_fastVsFast_01"
  pooling_param {
    pool: MAX
    kernel_size: 3
    stride: 2
  }
}
layer {
  name: "conv3_fastVsFast_01"
  type: "Convolution"
  bottom: "pool2_fastVsFast_01"
  top: "conv3_fastVsFast_01"
  param {
    name: "conv3_w"
    lr_mult: 1
    lr_pre_mult: 0.01
    decay_mult: 1
  }
  param {
    name: "conv3_b"
    lr_mult: 2
    lr_pre_mult: 0.01
    decay_mult: 0
  }
  convolution_param {
    num_output: 256
    kernel_size: 5
    weight_filler {
      type: "gaussian"
      std: 0.01
    }
    bias_filler {
      type: "constant"
      value: 0
    }
  }
}
layer {
  name: "relu3_fastVsFast_01"
  type: "ReLU"
  bottom: "conv3_fastVsFast_01"
  top: "conv3_fastVsFast_01"
}
layer {
  name: "drop3_fastVsFast_01"
  type: "Dropout"
  bottom: "conv3_fastVsFast_01"
  top: "conv3_fastVsFast_01"
  dropout_param {
    dropout_ratio: 0.1
  }
}
layer {
  name: "pool3_fastVsFast_01"
  type: "Pooling"
  bottom: "conv3_fastVsFast_01"
  top: "pool3_fastVsFast_01"
  pooling_param {
    pool: MAX
    kernel_size: 3
    stride: 2
  }
}
layer {
  name: "conv4_fastVsFast_01"
  type: "Convolution"
  bottom: "pool3_fastVsFast_01"
  top: "conv4_fastVsFast_01"
  propagate_down: false
  param {
    name: "conv4_w"
    lr_mult: 1
    lr_pre_mult: 0.02
    decay_mult: 10
  }
  param {
    name: "conv4_b"
    lr_mult: 2
    lr_pre_mult: 0.02
    decay_mult: 0
  }
  convolution_param {
    num_output: 512
    kernel_size: 5
    weight_filler {
      type: "gaussian"
      std: 0.01
    }
    bias_filler {
      type: "constant"
      value: 0
    }
  }
}
layer {
  name: "relu4_fastVsFast_01"
  type: "ReLU"
  bottom: "conv4_fastVsFast_01"
  top: "conv4_fastVsFast_01"
}
layer {
  name: "drop4_fastVsFast_01"
  type: "Dropout"
  bottom: "conv4_fastVsFast_01"
  top: "conv4_fastVsFast_01"
  dropout_param {
    dropout_ratio: 0.2
  }
}
layer {
  name: "pool4_fastVsFast_01"
  type: "Pooling"
  bottom: "conv4_fastVsFast_01"
  top: "pool4_fastVsFast_01"
  pooling_param {
    pool: MAX
    kernel_size: 3
    stride: 2
  }
}
layer {
  name: "ip5_fastVsFast_01"
  type: "Convolution"
  bottom: "pool4_fastVsFast_01"
  top: "ip5_fastVsFast_01"
  param {
    name: "ip5_fastVsFast_01_w"
    lr_mult: 0.1
    decay_mult: 1000
  }
  param {
    name: "ip5_fastVsFast_01_b"
    lr_mult: 0.2
    decay_mult: 0
  }
  convolution_param {
    num_output: 2
    kernel_size: 1
    weight_filler {
      type: "gaussian"
      std: 0.01
    }
    bias_filler {
      type: "constant"
      value: 0
    }
  }
}
layer {
  name: "accuracy_fastVsFast_01"
  type: "Accuracy"
  bottom: "ip5_fastVsFast_01"
  bottom: "label_fastVsFast_01"
  top: "accuracy_fastVsFast_01"
  include: { phase: TEST }
}
layer {
  name: "loss_fastVsFast_01"
  type: "HingeLoss"
  bottom: "ip5_fastVsFast_01"
  bottom: "label_fastVsFast_01"
#  top: "loss_fastVsFast_01"
}

# Task fastVsFast, class 02
layer {
  name: "data_fastVsFast_02"
  type: "Data"
  top: "data_fastVsFast_02"
  top: "label_fastVsFast_02"
  data_param {
    source: "data/amtrak/db_fastVsFast_02_train"
    source_map: "data/amtrak/fastVsFast_0_02-images-idx3-ubyte"
    source_map: "data/amtrak/fastVsFast_1_02-images-idx3-ubyte"
    source_map: "data/amtrak/fastVsFast_2_02-images-idx3-ubyte"
    source_map: "data/amtrak/fastVsFast_3_02-images-idx3-ubyte"
    source_map: "data/amtrak/fastVsFast_4_02-images-idx3-ubyte"
    backend: LMDB_FILE
    batch_size: 1
  }
  transform_param {
    scale: 0.00390625
    crop_size: 182
    mean_value: 96
    mirror: false
    mirror_v: false
  }
  include: { phase: TRAIN }
}
layer {
  name: "data_fastVsFast_02"
  type: "Data"
  top: "data_fastVsFast_02"
  top: "label_fastVsFast_02"
  data_param {
    source: "data/amtrak/db_fastVsFast_02_test"
    source_map: "data/amtrak/fastVsFast_0_02-images-idx3-ubyte"
    source_map: "data/amtrak/fastVsFast_1_02-images-idx3-ubyte"
    source_map: "data/amtrak/fastVsFast_2_02-images-idx3-ubyte"
    source_map: "data/amtrak/fastVsFast_3_02-images-idx3-ubyte"
    source_map: "data/amtrak/fastVsFast_4_02-images-idx3-ubyte"
    backend: LMDB_FILE
    batch_size: 2
  }
  transform_param {
    scale: 0.00390625
    crop_size: 182
    mean_value: 96
    mirror: false
  }
  include: { phase: TEST }
}
layer {
  name: "conv1_fastVsFast_02"
  type: "Convolution"
  bottom: "data_fastVsFast_02"
  top: "conv1_fastVsFast_02"
  param {
    name: "conv1_w"
    lr_mult: 1
    lr_pre_mult: 0.01
    decay_mult: 1
  }
  param {
    name: "conv1_b"
    lr_mult: 2
    lr_pre_mult: 0.01
    decay_mult: 0
  }
  convolution_param {
    num_output: 48
    kernel_size: 9
    stride: 2
    weight_filler {
      type: "gaussian"
      std: 0.01
    }
    bias_filler {
      type: "constant"
      value: 0
    }
  }
}
layer {
  name: "pool1_fastVsFast_02"
  type: "Pooling"
  bottom: "conv1_fastVsFast_02"
  top: "pool1_fastVsFast_02"
  pooling_param {
    pool: MAX
    kernel_size: 3
    stride: 2
  }
}
layer {
  name: "norm1_fastVsFast_02"
  type: "LRN"
  bottom: "pool1_fastVsFast_02"
  top: "norm1_fastVsFast_02"
  lrn_param {
    local_size: 5
    alpha: 0.001
    beta: 0.5
    norm_region: WITHIN_CHANNEL
  }
}
layer {
  name: "conv2_fastVsFast_02"
  type: "Convolution"
  bottom: "norm1_fastVsFast_02"
  top: "conv2_fastVsFast_02"
  param {
    name: "conv2_w"
    lr_mult: 1
    lr_pre_mult: 0.01
    decay_mult: 1
  }
  param {
    name: "conv2_b"
    lr_mult: 2
    lr_pre_mult: 0.01
    decay_mult: 0
  }
  convolution_param {
    num_output: 64
    kernel_size: 5
    stride: 1
    weight_filler {
      type: "gaussian"
      std: 0.01
    }
    bias_filler {
      type: "constant"
      value: 0
    }
  }
}
layer {
  name: "relu2_fastVsFast_02"
  type: "ReLU"
  bottom: "conv2_fastVsFast_02"
  top: "conv2_fastVsFast_02"
}
layer {
  name: "pool2_fastVsFast_02"
  type: "Pooling"
  bottom: "conv2_fastVsFast_02"
  top: "pool2_fastVsFast_02"
  pooling_param {
    pool: MAX
    kernel_size: 3
    stride: 2
  }
}
layer {
  name: "conv3_fastVsFast_02"
  type: "Convolution"
  bottom: "pool2_fastVsFast_02"
  top: "conv3_fastVsFast_02"
  param {
    name: "conv3_w"
    lr_mult: 1
    lr_pre_mult: 0.01
    decay_mult: 1
  }
  param {
    name: "conv3_b"
    lr_mult: 2
    lr_pre_mult: 0.01
    decay_mult: 0
  }
  convolution_param {
    num_output: 256
    kernel_size: 5
    weight_filler {
      type: "gaussian"
      std: 0.01
    }
    bias_filler {
      type: "constant"
      value: 0
    }
  }
}
layer {
  name: "relu3_fastVsFast_02"
  type: "ReLU"
  bottom: "conv3_fastVsFast_02"
  top: "conv3_fastVsFast_02"
}
layer {
  name: "drop3_fastVsFast_02"
  type: "Dropout"
  bottom: "conv3_fastVsFast_02"
  top: "conv3_fastVsFast_02"
  dropout_param {
    dropout_ratio: 0.1
  }
}
layer {
  name: "pool3_fastVsFast_02"
  type: "Pooling"
  bottom: "conv3_fastVsFast_02"
  top: "pool3_fastVsFast_02"
  pooling_param {
    pool: MAX
    kernel_size: 3
    stride: 2
  }
}
layer {
  name: "conv4_fastVsFast_02"
  type: "Convolution"
  bottom: "pool3_fastVsFast_02"
  top: "conv4_fastVsFast_02"
  propagate_down: false
  param {
    name: "conv4_w"
    lr_mult: 1
    lr_pre_mult: 0.02
    decay_mult: 10
  }
  param {
    name: "conv4_b"
    lr_mult: 2
    lr_pre_mult: 0.02
    decay_mult: 0
  }
  convolution_param {
    num_output: 512
    kernel_size: 5
    weight_filler {
      type: "gaussian"
      std: 0.01
    }
    bias_filler {
      type: "constant"
      value: 0
    }
  }
}
layer {
  name: "relu4_fastVsFast_02"
  type: "ReLU"
  bottom: "conv4_fastVsFast_02"
  top: "conv4_fastVsFast_02"
}
layer {
  name: "drop4_fastVsFast_02"
  type: "Dropout"
  bottom: "conv4_fastVsFast_02"
  top: "conv4_fastVsFast_02"
  dropout_param {
    dropout_ratio: 0.2
  }
}
layer {
  name: "pool4_fastVsFast_02"
  type: "Pooling"
  bottom: "conv4_fastVsFast_02"
  top: "pool4_fastVsFast_02"
  pooling_param {
    pool: MAX
    kernel_size: 3
    stride: 2
  }
}
layer {
  name: "ip5_fastVsFast_02"
  type: "Convolution"
  bottom: "pool4_fastVsFast_02"
  top: "ip5_fastVsFast_02"
  param {
    name: "ip5_fastVsFast_02_w"
    lr_mult: 0.1
    decay_mult: 1000
  }
  param {
    name: "ip5_fastVsFast_02_b"
    lr_mult: 0.2
    decay_mult: 0
  }
  convolution_param {
    num_output: 2
    kernel_size: 1
    weight_filler {
      type: "gaussian"
      std: 0.01
    }
    bias_filler {
      type: "constant"
      value: 0
    }
  }
}
layer {
  name: "accuracy_fastVsFast_02"
  type: "Accuracy"
  bottom: "ip5_fastVsFast_02"
  bottom: "label_fastVsFast_02"
  top: "accuracy_fastVsFast_02"
  include: { phase: TEST }
}
layer {
  name: "loss_fastVsFast_02"
  type: "HingeLoss"
  bottom: "ip5_fastVsFast_02"
  bottom: "label_fastVsFast_02"
#  top: "loss_fastVsFast_02"
}

# Task fastVsFast, class 03
layer {
  name: "data_fastVsFast_03"
  type: "Data"
  top: "data_fastVsFast_03"
  top: "label_fastVsFast_03"
  data_param {
    source: "data/amtrak/db_fastVsFast_03_train"
    source_map: "data/amtrak/fastVsFast_0_03-images-idx3-ubyte"
    source_map: "data/amtrak/fastVsFast_1_03-images-idx3-ubyte"
    source_map: "data/amtrak/fastVsFast_2_03-images-idx3-ubyte"
    source_map: "data/amtrak/fastVsFast_3_03-images-idx3-ubyte"
    source_map: "data/amtrak/fastVsFast_4_03-images-idx3-ubyte"
    backend: LMDB_FILE
    batch_size: 1
  }
  transform_param {
    scale: 0.00390625
    crop_size: 182
    mean_value: 96
    mirror: false
    mirror_v: false
  }
  include: { phase: TRAIN }
}
layer {
  name: "data_fastVsFast_03"
  type: "Data"
  top: "data_fastVsFast_03"
  top: "label_fastVsFast_03"
  data_param {
    source: "data/amtrak/db_fastVsFast_03_test"
    source_map: "data/amtrak/fastVsFast_0_03-images-idx3-ubyte"
    source_map: "data/amtrak/fastVsFast_1_03-images-idx3-ubyte"
    source_map: "data/amtrak/fastVsFast_2_03-images-idx3-ubyte"
    source_map: "data/amtrak/fastVsFast_3_03-images-idx3-ubyte"
    source_map: "data/amtrak/fastVsFast_4_03-images-idx3-ubyte"
    backend: LMDB_FILE
    batch_size: 2
  }
  transform_param {
    scale: 0.00390625
    crop_size: 182
    mean_value: 96
    mirror: false
  }
  include: { phase: TEST }
}
layer {
  name: "conv1_fastVsFast_03"
  type: "Convolution"
  bottom: "data_fastVsFast_03"
  top: "conv1_fastVsFast_03"
  param {
    name: "conv1_w"
    lr_mult: 1
    lr_pre_mult: 0.01
    decay_mult: 1
  }
  param {
    name: "conv1_b"
    lr_mult: 2
    lr_pre_mult: 0.01
    decay_mult: 0
  }
  convolution_param {
    num_output: 48
    kernel_size: 9
    stride: 2
    weight_filler {
      type: "gaussian"
      std: 0.01
    }
    bias_filler {
      type: "constant"
      value: 0
    }
  }
}
layer {
  name: "pool1_fastVsFast_03"
  type: "Pooling"
  bottom: "conv1_fastVsFast_03"
  top: "pool1_fastVsFast_03"
  pooling_param {
    pool: MAX
    kernel_size: 3
    stride: 2
  }
}
layer {
  name: "norm1_fastVsFast_03"
  type: "LRN"
  bottom: "pool1_fastVsFast_03"
  top: "norm1_fastVsFast_03"
  lrn_param {
    local_size: 5
    alpha: 0.001
    beta: 0.5
    norm_region: WITHIN_CHANNEL
  }
}
layer {
  name: "conv2_fastVsFast_03"
  type: "Convolution"
  bottom: "norm1_fastVsFast_03"
  top: "conv2_fastVsFast_03"
  param {
    name: "conv2_w"
    lr_mult: 1
    lr_pre_mult: 0.01
    decay_mult: 1
  }
  param {
    name: "conv2_b"
    lr_mult: 2
    lr_pre_mult: 0.01
    decay_mult: 0
  }
  convolution_param {
    num_output: 64
    kernel_size: 5
    stride: 1
    weight_filler {
      type: "gaussian"
      std: 0.01
    }
    bias_filler {
      type: "constant"
      value: 0
    }
  }
}
layer {
  name: "relu2_fastVsFast_03"
  type: "ReLU"
  bottom: "conv2_fastVsFast_03"
  top: "conv2_fastVsFast_03"
}
layer {
  name: "pool2_fastVsFast_03"
  type: "Pooling"
  bottom: "conv2_fastVsFast_03"
  top: "pool2_fastVsFast_03"
  pooling_param {
    pool: MAX
    kernel_size: 3
    stride: 2
  }
}
layer {
  name: "conv3_fastVsFast_03"
  type: "Convolution"
  bottom: "pool2_fastVsFast_03"
  top: "conv3_fastVsFast_03"
  param {
    name: "conv3_w"
    lr_mult: 1
    lr_pre_mult: 0.01
    decay_mult: 1
  }
  param {
    name: "conv3_b"
    lr_mult: 2
    lr_pre_mult: 0.01
    decay_mult: 0
  }
  convolution_param {
    num_output: 256
    kernel_size: 5
    weight_filler {
      type: "gaussian"
      std: 0.01
    }
    bias_filler {
      type: "constant"
      value: 0
    }
  }
}
layer {
  name: "relu3_fastVsFast_03"
  type: "ReLU"
  bottom: "conv3_fastVsFast_03"
  top: "conv3_fastVsFast_03"
}
layer {
  name: "drop3_fastVsFast_03"
  type: "Dropout"
  bottom: "conv3_fastVsFast_03"
  top: "conv3_fastVsFast_03"
  dropout_param {
    dropout_ratio: 0.1
  }
}
layer {
  name: "pool3_fastVsFast_03"
  type: "Pooling"
  bottom: "conv3_fastVsFast_03"
  top: "pool3_fastVsFast_03"
  pooling_param {
    pool: MAX
    kernel_size: 3
    stride: 2
  }
}
layer {
  name: "conv4_fastVsFast_03"
  type: "Convolution"
  bottom: "pool3_fastVsFast_03"
  top: "conv4_fastVsFast_03"
  propagate_down: false
  param {
    name: "conv4_w"
    lr_mult: 1
    lr_pre_mult: 0.02
    decay_mult: 10
  }
  param {
    name: "conv4_b"
    lr_mult: 2
    lr_pre_mult: 0.02
    decay_mult: 0
  }
  convolution_param {
    num_output: 512
    kernel_size: 5
    weight_filler {
      type: "gaussian"
      std: 0.01
    }
    bias_filler {
      type: "constant"
      value: 0
    }
  }
}
layer {
  name: "relu4_fastVsFast_03"
  type: "ReLU"
  bottom: "conv4_fastVsFast_03"
  top: "conv4_fastVsFast_03"
}
layer {
  name: "drop4_fastVsFast_03"
  type: "Dropout"
  bottom: "conv4_fastVsFast_03"
  top: "conv4_fastVsFast_03"
  dropout_param {
    dropout_ratio: 0.2
  }
}
layer {
  name: "pool4_fastVsFast_03"
  type: "Pooling"
  bottom: "conv4_fastVsFast_03"
  top: "pool4_fastVsFast_03"
  pooling_param {
    pool: MAX
    kernel_size: 3
    stride: 2
  }
}
layer {
  name: "ip5_fastVsFast_03"
  type: "Convolution"
  bottom: "pool4_fastVsFast_03"
  top: "ip5_fastVsFast_03"
  param {
    name: "ip5_fastVsFast_03_w"
    lr_mult: 0.1
    decay_mult: 1000
  }
  param {
    name: "ip5_fastVsFast_03_b"
    lr_mult: 0.2
    decay_mult: 0
  }
  convolution_param {
    num_output: 2
    kernel_size: 1
    weight_filler {
      type: "gaussian"
      std: 0.01
    }
    bias_filler {
      type: "constant"
      value: 0
    }
  }
}
layer {
  name: "accuracy_fastVsFast_03"
  type: "Accuracy"
  bottom: "ip5_fastVsFast_03"
  bottom: "label_fastVsFast_03"
  top: "accuracy_fastVsFast_03"
  include: { phase: TEST }
}
layer {
  name: "loss_fastVsFast_03"
  type: "HingeLoss"
  bottom: "ip5_fastVsFast_03"
  bottom: "label_fastVsFast_03"
#  top: "loss_fastVsFast_03"
}

# Task fastVsFast, class 04
layer {
  name: "data_fastVsFast_04"
  type: "Data"
  top: "data_fastVsFast_04"
  top: "label_fastVsFast_04"
  data_param {
    source: "data/amtrak/db_fastVsFast_04_train"
    source_map: "data/amtrak/fastVsFast_0_04-images-idx3-ubyte"
    source_map: "data/amtrak/fastVsFast_1_04-images-idx3-ubyte"
    source_map: "data/amtrak/fastVsFast_2_04-images-idx3-ubyte"
    source_map: "data/amtrak/fastVsFast_3_04-images-idx3-ubyte"
    source_map: "data/amtrak/fastVsFast_4_04-images-idx3-ubyte"
    backend: LMDB_FILE
    batch_size: 1
  }
  transform_param {
    scale: 0.00390625
    crop_size: 182
    mean_value: 96
    mirror: false
    mirror_v: false
  }
  include: { phase: TRAIN }
}
layer {
  name: "data_fastVsFast_04"
  type: "Data"
  top: "data_fastVsFast_04"
  top: "label_fastVsFast_04"
  data_param {
    source: "data/amtrak/db_fastVsFast_04_test"
    source_map: "data/amtrak/fastVsFast_0_04-images-idx3-ubyte"
    source_map: "data/amtrak/fastVsFast_1_04-images-idx3-ubyte"
    source_map: "data/amtrak/fastVsFast_2_04-images-idx3-ubyte"
    source_map: "data/amtrak/fastVsFast_3_04-images-idx3-ubyte"
    source_map: "data/amtrak/fastVsFast_4_04-images-idx3-ubyte"
    backend: LMDB_FILE
    batch_size: 2
  }
  transform_param {
    scale: 0.00390625
    crop_size: 182
    mean_value: 96
    mirror: false
  }
  include: { phase: TEST }
}
layer {
  name: "conv1_fastVsFast_04"
  type: "Convolution"
  bottom: "data_fastVsFast_04"
  top: "conv1_fastVsFast_04"
  param {
    name: "conv1_w"
    lr_mult: 1
    lr_pre_mult: 0.01
    decay_mult: 1
  }
  param {
    name: "conv1_b"
    lr_mult: 2
    lr_pre_mult: 0.01
    decay_mult: 0
  }
  convolution_param {
    num_output: 48
    kernel_size: 9
    stride: 2
    weight_filler {
      type: "gaussian"
      std: 0.01
    }
    bias_filler {
      type: "constant"
      value: 0
    }
  }
}
layer {
  name: "pool1_fastVsFast_04"
  type: "Pooling"
  bottom: "conv1_fastVsFast_04"
  top: "pool1_fastVsFast_04"
  pooling_param {
    pool: MAX
    kernel_size: 3
    stride: 2
  }
}
layer {
  name: "norm1_fastVsFast_04"
  type: "LRN"
  bottom: "pool1_fastVsFast_04"
  top: "norm1_fastVsFast_04"
  lrn_param {
    local_size: 5
    alpha: 0.001
    beta: 0.5
    norm_region: WITHIN_CHANNEL
  }
}
layer {
  name: "conv2_fastVsFast_04"
  type: "Convolution"
  bottom: "norm1_fastVsFast_04"
  top: "conv2_fastVsFast_04"
  param {
    name: "conv2_w"
    lr_mult: 1
    lr_pre_mult: 0.01
    decay_mult: 1
  }
  param {
    name: "conv2_b"
    lr_mult: 2
    lr_pre_mult: 0.01
    decay_mult: 0
  }
  convolution_param {
    num_output: 64
    kernel_size: 5
    stride: 1
    weight_filler {
      type: "gaussian"
      std: 0.01
    }
    bias_filler {
      type: "constant"
      value: 0
    }
  }
}
layer {
  name: "relu2_fastVsFast_04"
  type: "ReLU"
  bottom: "conv2_fastVsFast_04"
  top: "conv2_fastVsFast_04"
}
layer {
  name: "pool2_fastVsFast_04"
  type: "Pooling"
  bottom: "conv2_fastVsFast_04"
  top: "pool2_fastVsFast_04"
  pooling_param {
    pool: MAX
    kernel_size: 3
    stride: 2
  }
}
layer {
  name: "conv3_fastVsFast_04"
  type: "Convolution"
  bottom: "pool2_fastVsFast_04"
  top: "conv3_fastVsFast_04"
  param {
    name: "conv3_w"
    lr_mult: 1
    lr_pre_mult: 0.01
    decay_mult: 1
  }
  param {
    name: "conv3_b"
    lr_mult: 2
    lr_pre_mult: 0.01
    decay_mult: 0
  }
  convolution_param {
    num_output: 256
    kernel_size: 5
    weight_filler {
      type: "gaussian"
      std: 0.01
    }
    bias_filler {
      type: "constant"
      value: 0
    }
  }
}
layer {
  name: "relu3_fastVsFast_04"
  type: "ReLU"
  bottom: "conv3_fastVsFast_04"
  top: "conv3_fastVsFast_04"
}
layer {
  name: "drop3_fastVsFast_04"
  type: "Dropout"
  bottom: "conv3_fastVsFast_04"
  top: "conv3_fastVsFast_04"
  dropout_param {
    dropout_ratio: 0.1
  }
}
layer {
  name: "pool3_fastVsFast_04"
  type: "Pooling"
  bottom: "conv3_fastVsFast_04"
  top: "pool3_fastVsFast_04"
  pooling_param {
    pool: MAX
    kernel_size: 3
    stride: 2
  }
}
layer {
  name: "conv4_fastVsFast_04"
  type: "Convolution"
  bottom: "pool3_fastVsFast_04"
  top: "conv4_fastVsFast_04"
  propagate_down: false
  param {
    name: "conv4_w"
    lr_mult: 1
    lr_pre_mult: 0.02
    decay_mult: 10
  }
  param {
    name: "conv4_b"
    lr_mult: 2
    lr_pre_mult: 0.02
    decay_mult: 0
  }
  convolution_param {
    num_output: 512
    kernel_size: 5
    weight_filler {
      type: "gaussian"
      std: 0.01
    }
    bias_filler {
      type: "constant"
      value: 0
    }
  }
}
layer {
  name: "relu4_fastVsFast_04"
  type: "ReLU"
  bottom: "conv4_fastVsFast_04"
  top: "conv4_fastVsFast_04"
}
layer {
  name: "drop4_fastVsFast_04"
  type: "Dropout"
  bottom: "conv4_fastVsFast_04"
  top: "conv4_fastVsFast_04"
  dropout_param {
    dropout_ratio: 0.2
  }
}
layer {
  name: "pool4_fastVsFast_04"
  type: "Pooling"
  bottom: "conv4_fastVsFast_04"
  top: "pool4_fastVsFast_04"
  pooling_param {
    pool: MAX
    kernel_size: 3
    stride: 2
  }
}
layer {
  name: "ip5_fastVsFast_04"
  type: "Convolution"
  bottom: "pool4_fastVsFast_04"
  top: "ip5_fastVsFast_04"
  param {
    name: "ip5_fastVsFast_04_w"
    lr_mult: 0.1
    decay_mult: 1000
  }
  param {
    name: "ip5_fastVsFast_04_b"
    lr_mult: 0.2
    decay_mult: 0
  }
  convolution_param {
    num_output: 2
    kernel_size: 1
    weight_filler {
      type: "gaussian"
      std: 0.01
    }
    bias_filler {
      type: "constant"
      value: 0
    }
  }
}
layer {
  name: "accuracy_fastVsFast_04"
  type: "Accuracy"
  bottom: "ip5_fastVsFast_04"
  bottom: "label_fastVsFast_04"
  top: "accuracy_fastVsFast_04"
  include: { phase: TEST }
}
layer {
  name: "loss_fastVsFast_04"
  type: "HingeLoss"
  bottom: "ip5_fastVsFast_04"
  bottom: "label_fastVsFast_04"
#  top: "loss_fastVsFast_04"
}

# Task fastVsFast, class 05
layer {
  name: "data_fastVsFast_05"
  type: "Data"
  top: "data_fastVsFast_05"
  top: "label_fastVsFast_05"
  data_param {
    source: "data/amtrak/db_fastVsFast_05_train"
    source_map: "data/amtrak/fastVsFast_0_05-images-idx3-ubyte"
    source_map: "data/amtrak/fastVsFast_1_05-images-idx3-ubyte"
    source_map: "data/amtrak/fastVsFast_2_05-images-idx3-ubyte"
    source_map: "data/amtrak/fastVsFast_3_05-images-idx3-ubyte"
    source_map: "data/amtrak/fastVsFast_4_05-images-idx3-ubyte"
    backend: LMDB_FILE
    batch_size: 1
  }
  transform_param {
    scale: 0.00390625
    crop_size: 182
    mean_value: 96
    mirror: false
    mirror_v: false
  }
  include: { phase: TRAIN }
}
layer {
  name: "data_fastVsFast_05"
  type: "Data"
  top: "data_fastVsFast_05"
  top: "label_fastVsFast_05"
  data_param {
    source: "data/amtrak/db_fastVsFast_05_test"
    source_map: "data/amtrak/fastVsFast_0_05-images-idx3-ubyte"
    source_map: "data/amtrak/fastVsFast_1_05-images-idx3-ubyte"
    source_map: "data/amtrak/fastVsFast_2_05-images-idx3-ubyte"
    source_map: "data/amtrak/fastVsFast_3_05-images-idx3-ubyte"
    source_map: "data/amtrak/fastVsFast_4_05-images-idx3-ubyte"
    backend: LMDB_FILE
    batch_size: 2
  }
  transform_param {
    scale: 0.00390625
    crop_size: 182
    mean_value: 96
    mirror: false
  }
  include: { phase: TEST }
}
layer {
  name: "conv1_fastVsFast_05"
  type: "Convolution"
  bottom: "data_fastVsFast_05"
  top: "conv1_fastVsFast_05"
  param {
    name: "conv1_w"
    lr_mult: 1
    lr_pre_mult: 0.01
    decay_mult: 1
  }
  param {
    name: "conv1_b"
    lr_mult: 2
    lr_pre_mult: 0.01
    decay_mult: 0
  }
  convolution_param {
    num_output: 48
    kernel_size: 9
    stride: 2
    weight_filler {
      type: "gaussian"
      std: 0.01
    }
    bias_filler {
      type: "constant"
      value: 0
    }
  }
}
layer {
  name: "pool1_fastVsFast_05"
  type: "Pooling"
  bottom: "conv1_fastVsFast_05"
  top: "pool1_fastVsFast_05"
  pooling_param {
    pool: MAX
    kernel_size: 3
    stride: 2
  }
}
layer {
  name: "norm1_fastVsFast_05"
  type: "LRN"
  bottom: "pool1_fastVsFast_05"
  top: "norm1_fastVsFast_05"
  lrn_param {
    local_size: 5
    alpha: 0.001
    beta: 0.5
    norm_region: WITHIN_CHANNEL
  }
}
layer {
  name: "conv2_fastVsFast_05"
  type: "Convolution"
  bottom: "norm1_fastVsFast_05"
  top: "conv2_fastVsFast_05"
  param {
    name: "conv2_w"
    lr_mult: 1
    lr_pre_mult: 0.01
    decay_mult: 1
  }
  param {
    name: "conv2_b"
    lr_mult: 2
    lr_pre_mult: 0.01
    decay_mult: 0
  }
  convolution_param {
    num_output: 64
    kernel_size: 5
    stride: 1
    weight_filler {
      type: "gaussian"
      std: 0.01
    }
    bias_filler {
      type: "constant"
      value: 0
    }
  }
}
layer {
  name: "relu2_fastVsFast_05"
  type: "ReLU"
  bottom: "conv2_fastVsFast_05"
  top: "conv2_fastVsFast_05"
}
layer {
  name: "pool2_fastVsFast_05"
  type: "Pooling"
  bottom: "conv2_fastVsFast_05"
  top: "pool2_fastVsFast_05"
  pooling_param {
    pool: MAX
    kernel_size: 3
    stride: 2
  }
}
layer {
  name: "conv3_fastVsFast_05"
  type: "Convolution"
  bottom: "pool2_fastVsFast_05"
  top: "conv3_fastVsFast_05"
  param {
    name: "conv3_w"
    lr_mult: 1
    lr_pre_mult: 0.01
    decay_mult: 1
  }
  param {
    name: "conv3_b"
    lr_mult: 2
    lr_pre_mult: 0.01
    decay_mult: 0
  }
  convolution_param {
    num_output: 256
    kernel_size: 5
    weight_filler {
      type: "gaussian"
      std: 0.01
    }
    bias_filler {
      type: "constant"
      value: 0
    }
  }
}
layer {
  name: "relu3_fastVsFast_05"
  type: "ReLU"
  bottom: "conv3_fastVsFast_05"
  top: "conv3_fastVsFast_05"
}
layer {
  name: "drop3_fastVsFast_05"
  type: "Dropout"
  bottom: "conv3_fastVsFast_05"
  top: "conv3_fastVsFast_05"
  dropout_param {
    dropout_ratio: 0.1
  }
}
layer {
  name: "pool3_fastVsFast_05"
  type: "Pooling"
  bottom: "conv3_fastVsFast_05"
  top: "pool3_fastVsFast_05"
  pooling_param {
    pool: MAX
    kernel_size: 3
    stride: 2
  }
}
layer {
  name: "conv4_fastVsFast_05"
  type: "Convolution"
  bottom: "pool3_fastVsFast_05"
  top: "conv4_fastVsFast_05"
  propagate_down: false
  param {
    name: "conv4_w"
    lr_mult: 1
    lr_pre_mult: 0.02
    decay_mult: 10
  }
  param {
    name: "conv4_b"
    lr_mult: 2
    lr_pre_mult: 0.02
    decay_mult: 0
  }
  convolution_param {
    num_output: 512
    kernel_size: 5
    weight_filler {
      type: "gaussian"
      std: 0.01
    }
    bias_filler {
      type: "constant"
      value: 0
    }
  }
}
layer {
  name: "relu4_fastVsFast_05"
  type: "ReLU"
  bottom: "conv4_fastVsFast_05"
  top: "conv4_fastVsFast_05"
}
layer {
  name: "drop4_fastVsFast_05"
  type: "Dropout"
  bottom: "conv4_fastVsFast_05"
  top: "conv4_fastVsFast_05"
  dropout_param {
    dropout_ratio: 0.2
  }
}
layer {
  name: "pool4_fastVsFast_05"
  type: "Pooling"
  bottom: "conv4_fastVsFast_05"
  top: "pool4_fastVsFast_05"
  pooling_param {
    pool: MAX
    kernel_size: 3
    stride: 2
  }
}
layer {
  name: "ip5_fastVsFast_05"
  type: "Convolution"
  bottom: "pool4_fastVsFast_05"
  top: "ip5_fastVsFast_05"
  param {
    name: "ip5_fastVsFast_05_w"
    lr_mult: 0.1
    decay_mult: 1000
  }
  param {
    name: "ip5_fastVsFast_05_b"
    lr_mult: 0.2
    decay_mult: 0
  }
  convolution_param {
    num_output: 2
    kernel_size: 1
    weight_filler {
      type: "gaussian"
      std: 0.01
    }
    bias_filler {
      type: "constant"
      value: 0
    }
  }
}
layer {
  name: "accuracy_fastVsFast_05"
  type: "Accuracy"
  bottom: "ip5_fastVsFast_05"
  bottom: "label_fastVsFast_05"
  top: "accuracy_fastVsFast_05"
  include: { phase: TEST }
}
layer {
  name: "loss_fastVsFast_05"
  type: "HingeLoss"
  bottom: "ip5_fastVsFast_05"
  bottom: "label_fastVsFast_05"
#  top: "loss_fastVsFast_05"
}

# Task fastVsFast, class 06
layer {
  name: "data_fastVsFast_06"
  type: "Data"
  top: "data_fastVsFast_06"
  top: "label_fastVsFast_06"
  data_param {
    source: "data/amtrak/db_fastVsFast_06_train"
    source_map: "data/amtrak/fastVsFast_0_06-images-idx3-ubyte"
    source_map: "data/amtrak/fastVsFast_1_06-images-idx3-ubyte"
    source_map: "data/amtrak/fastVsFast_2_06-images-idx3-ubyte"
    source_map: "data/amtrak/fastVsFast_3_06-images-idx3-ubyte"
    source_map: "data/amtrak/fastVsFast_4_06-images-idx3-ubyte"
    backend: LMDB_FILE
    batch_size: 1
  }
  transform_param {
    scale: 0.00390625
    crop_size: 182
    mean_value: 96
    mirror: false
    mirror_v: false
  }
  include: { phase: TRAIN }
}
layer {
  name: "data_fastVsFast_06"
  type: "Data"
  top: "data_fastVsFast_06"
  top: "label_fastVsFast_06"
  data_param {
    source: "data/amtrak/db_fastVsFast_06_test"
    source_map: "data/amtrak/fastVsFast_0_06-images-idx3-ubyte"
    source_map: "data/amtrak/fastVsFast_1_06-images-idx3-ubyte"
    source_map: "data/amtrak/fastVsFast_2_06-images-idx3-ubyte"
    source_map: "data/amtrak/fastVsFast_3_06-images-idx3-ubyte"
    source_map: "data/amtrak/fastVsFast_4_06-images-idx3-ubyte"
    backend: LMDB_FILE
    batch_size: 2
  }
  transform_param {
    scale: 0.00390625
    crop_size: 182
    mean_value: 96
    mirror: false
  }
  include: { phase: TEST }
}
layer {
  name: "conv1_fastVsFast_06"
  type: "Convolution"
  bottom: "data_fastVsFast_06"
  top: "conv1_fastVsFast_06"
  param {
    name: "conv1_w"
    lr_mult: 1
    lr_pre_mult: 0.01
    decay_mult: 1
  }
  param {
    name: "conv1_b"
    lr_mult: 2
    lr_pre_mult: 0.01
    decay_mult: 0
  }
  convolution_param {
    num_output: 48
    kernel_size: 9
    stride: 2
    weight_filler {
      type: "gaussian"
      std: 0.01
    }
    bias_filler {
      type: "constant"
      value: 0
    }
  }
}
layer {
  name: "pool1_fastVsFast_06"
  type: "Pooling"
  bottom: "conv1_fastVsFast_06"
  top: "pool1_fastVsFast_06"
  pooling_param {
    pool: MAX
    kernel_size: 3
    stride: 2
  }
}
layer {
  name: "norm1_fastVsFast_06"
  type: "LRN"
  bottom: "pool1_fastVsFast_06"
  top: "norm1_fastVsFast_06"
  lrn_param {
    local_size: 5
    alpha: 0.001
    beta: 0.5
    norm_region: WITHIN_CHANNEL
  }
}
layer {
  name: "conv2_fastVsFast_06"
  type: "Convolution"
  bottom: "norm1_fastVsFast_06"
  top: "conv2_fastVsFast_06"
  param {
    name: "conv2_w"
    lr_mult: 1
    lr_pre_mult: 0.01
    decay_mult: 1
  }
  param {
    name: "conv2_b"
    lr_mult: 2
    lr_pre_mult: 0.01
    decay_mult: 0
  }
  convolution_param {
    num_output: 64
    kernel_size: 5
    stride: 1
    weight_filler {
      type: "gaussian"
      std: 0.01
    }
    bias_filler {
      type: "constant"
      value: 0
    }
  }
}
layer {
  name: "relu2_fastVsFast_06"
  type: "ReLU"
  bottom: "conv2_fastVsFast_06"
  top: "conv2_fastVsFast_06"
}
layer {
  name: "pool2_fastVsFast_06"
  type: "Pooling"
  bottom: "conv2_fastVsFast_06"
  top: "pool2_fastVsFast_06"
  pooling_param {
    pool: MAX
    kernel_size: 3
    stride: 2
  }
}
layer {
  name: "conv3_fastVsFast_06"
  type: "Convolution"
  bottom: "pool2_fastVsFast_06"
  top: "conv3_fastVsFast_06"
  param {
    name: "conv3_w"
    lr_mult: 1
    lr_pre_mult: 0.01
    decay_mult: 1
  }
  param {
    name: "conv3_b"
    lr_mult: 2
    lr_pre_mult: 0.01
    decay_mult: 0
  }
  convolution_param {
    num_output: 256
    kernel_size: 5
    weight_filler {
      type: "gaussian"
      std: 0.01
    }
    bias_filler {
      type: "constant"
      value: 0
    }
  }
}
layer {
  name: "relu3_fastVsFast_06"
  type: "ReLU"
  bottom: "conv3_fastVsFast_06"
  top: "conv3_fastVsFast_06"
}
layer {
  name: "drop3_fastVsFast_06"
  type: "Dropout"
  bottom: "conv3_fastVsFast_06"
  top: "conv3_fastVsFast_06"
  dropout_param {
    dropout_ratio: 0.1
  }
}
layer {
  name: "pool3_fastVsFast_06"
  type: "Pooling"
  bottom: "conv3_fastVsFast_06"
  top: "pool3_fastVsFast_06"
  pooling_param {
    pool: MAX
    kernel_size: 3
    stride: 2
  }
}
layer {
  name: "conv4_fastVsFast_06"
  type: "Convolution"
  bottom: "pool3_fastVsFast_06"
  top: "conv4_fastVsFast_06"
  propagate_down: false
  param {
    name: "conv4_w"
    lr_mult: 1
    lr_pre_mult: 0.02
    decay_mult: 10
  }
  param {
    name: "conv4_b"
    lr_mult: 2
    lr_pre_mult: 0.02
    decay_mult: 0
  }
  convolution_param {
    num_output: 512
    kernel_size: 5
    weight_filler {
      type: "gaussian"
      std: 0.01
    }
    bias_filler {
      type: "constant"
      value: 0
    }
  }
}
layer {
  name: "relu4_fastVsFast_06"
  type: "ReLU"
  bottom: "conv4_fastVsFast_06"
  top: "conv4_fastVsFast_06"
}
layer {
  name: "drop4_fastVsFast_06"
  type: "Dropout"
  bottom: "conv4_fastVsFast_06"
  top: "conv4_fastVsFast_06"
  dropout_param {
    dropout_ratio: 0.2
  }
}
layer {
  name: "pool4_fastVsFast_06"
  type: "Pooling"
  bottom: "conv4_fastVsFast_06"
  top: "pool4_fastVsFast_06"
  pooling_param {
    pool: MAX
    kernel_size: 3
    stride: 2
  }
}
layer {
  name: "ip5_fastVsFast_06"
  type: "Convolution"
  bottom: "pool4_fastVsFast_06"
  top: "ip5_fastVsFast_06"
  param {
    name: "ip5_fastVsFast_06_w"
    lr_mult: 0.1
    decay_mult: 1000
  }
  param {
    name: "ip5_fastVsFast_06_b"
    lr_mult: 0.2
    decay_mult: 0
  }
  convolution_param {
    num_output: 2
    kernel_size: 1
    weight_filler {
      type: "gaussian"
      std: 0.01
    }
    bias_filler {
      type: "constant"
      value: 0
    }
  }
}
layer {
  name: "accuracy_fastVsFast_06"
  type: "Accuracy"
  bottom: "ip5_fastVsFast_06"
  bottom: "label_fastVsFast_06"
  top: "accuracy_fastVsFast_06"
  include: { phase: TEST }
}
layer {
  name: "loss_fastVsFast_06"
  type: "HingeLoss"
  bottom: "ip5_fastVsFast_06"
  bottom: "label_fastVsFast_06"
#  top: "loss_fastVsFast_06"
}

# Task fastVsFast, class 07
layer {
  name: "data_fastVsFast_07"
  type: "Data"
  top: "data_fastVsFast_07"
  top: "label_fastVsFast_07"
  data_param {
    source: "data/amtrak/db_fastVsFast_07_train"
    source_map: "data/amtrak/fastVsFast_0_07-images-idx3-ubyte"
    source_map: "data/amtrak/fastVsFast_1_07-images-idx3-ubyte"
    source_map: "data/amtrak/fastVsFast_2_07-images-idx3-ubyte"
    source_map: "data/amtrak/fastVsFast_3_07-images-idx3-ubyte"
    source_map: "data/amtrak/fastVsFast_4_07-images-idx3-ubyte"
    backend: LMDB_FILE
    batch_size: 1
  }
  transform_param {
    scale: 0.00390625
    crop_size: 182
    mean_value: 96
    mirror: false
    mirror_v: false
  }
  include: { phase: TRAIN }
}
layer {
  name: "data_fastVsFast_07"
  type: "Data"
  top: "data_fastVsFast_07"
  top: "label_fastVsFast_07"
  data_param {
    source: "data/amtrak/db_fastVsFast_07_test"
    source_map: "data/amtrak/fastVsFast_0_07-images-idx3-ubyte"
    source_map: "data/amtrak/fastVsFast_1_07-images-idx3-ubyte"
    source_map: "data/amtrak/fastVsFast_2_07-images-idx3-ubyte"
    source_map: "data/amtrak/fastVsFast_3_07-images-idx3-ubyte"
    source_map: "data/amtrak/fastVsFast_4_07-images-idx3-ubyte"
    backend: LMDB_FILE
    batch_size: 2
  }
  transform_param {
    scale: 0.00390625
    crop_size: 182
    mean_value: 96
    mirror: false
  }
  include: { phase: TEST }
}
layer {
  name: "conv1_fastVsFast_07"
  type: "Convolution"
  bottom: "data_fastVsFast_07"
  top: "conv1_fastVsFast_07"
  param {
    name: "conv1_w"
    lr_mult: 1
    lr_pre_mult: 0.01
    decay_mult: 1
  }
  param {
    name: "conv1_b"
    lr_mult: 2
    lr_pre_mult: 0.01
    decay_mult: 0
  }
  convolution_param {
    num_output: 48
    kernel_size: 9
    stride: 2
    weight_filler {
      type: "gaussian"
      std: 0.01
    }
    bias_filler {
      type: "constant"
      value: 0
    }
  }
}
layer {
  name: "pool1_fastVsFast_07"
  type: "Pooling"
  bottom: "conv1_fastVsFast_07"
  top: "pool1_fastVsFast_07"
  pooling_param {
    pool: MAX
    kernel_size: 3
    stride: 2
  }
}
layer {
  name: "norm1_fastVsFast_07"
  type: "LRN"
  bottom: "pool1_fastVsFast_07"
  top: "norm1_fastVsFast_07"
  lrn_param {
    local_size: 5
    alpha: 0.001
    beta: 0.5
    norm_region: WITHIN_CHANNEL
  }
}
layer {
  name: "conv2_fastVsFast_07"
  type: "Convolution"
  bottom: "norm1_fastVsFast_07"
  top: "conv2_fastVsFast_07"
  param {
    name: "conv2_w"
    lr_mult: 1
    lr_pre_mult: 0.01
    decay_mult: 1
  }
  param {
    name: "conv2_b"
    lr_mult: 2
    lr_pre_mult: 0.01
    decay_mult: 0
  }
  convolution_param {
    num_output: 64
    kernel_size: 5
    stride: 1
    weight_filler {
      type: "gaussian"
      std: 0.01
    }
    bias_filler {
      type: "constant"
      value: 0
    }
  }
}
layer {
  name: "relu2_fastVsFast_07"
  type: "ReLU"
  bottom: "conv2_fastVsFast_07"
  top: "conv2_fastVsFast_07"
}
layer {
  name: "pool2_fastVsFast_07"
  type: "Pooling"
  bottom: "conv2_fastVsFast_07"
  top: "pool2_fastVsFast_07"
  pooling_param {
    pool: MAX
    kernel_size: 3
    stride: 2
  }
}
layer {
  name: "conv3_fastVsFast_07"
  type: "Convolution"
  bottom: "pool2_fastVsFast_07"
  top: "conv3_fastVsFast_07"
  param {
    name: "conv3_w"
    lr_mult: 1
    lr_pre_mult: 0.01
    decay_mult: 1
  }
  param {
    name: "conv3_b"
    lr_mult: 2
    lr_pre_mult: 0.01
    decay_mult: 0
  }
  convolution_param {
    num_output: 256
    kernel_size: 5
    weight_filler {
      type: "gaussian"
      std: 0.01
    }
    bias_filler {
      type: "constant"
      value: 0
    }
  }
}
layer {
  name: "relu3_fastVsFast_07"
  type: "ReLU"
  bottom: "conv3_fastVsFast_07"
  top: "conv3_fastVsFast_07"
}
layer {
  name: "drop3_fastVsFast_07"
  type: "Dropout"
  bottom: "conv3_fastVsFast_07"
  top: "conv3_fastVsFast_07"
  dropout_param {
    dropout_ratio: 0.1
  }
}
layer {
  name: "pool3_fastVsFast_07"
  type: "Pooling"
  bottom: "conv3_fastVsFast_07"
  top: "pool3_fastVsFast_07"
  pooling_param {
    pool: MAX
    kernel_size: 3
    stride: 2
  }
}
layer {
  name: "conv4_fastVsFast_07"
  type: "Convolution"
  bottom: "pool3_fastVsFast_07"
  top: "conv4_fastVsFast_07"
  propagate_down: false
  param {
    name: "conv4_w"
    lr_mult: 1
    lr_pre_mult: 0.02
    decay_mult: 10
  }
  param {
    name: "conv4_b"
    lr_mult: 2
    lr_pre_mult: 0.02
    decay_mult: 0
  }
  convolution_param {
    num_output: 512
    kernel_size: 5
    weight_filler {
      type: "gaussian"
      std: 0.01
    }
    bias_filler {
      type: "constant"
      value: 0
    }
  }
}
layer {
  name: "relu4_fastVsFast_07"
  type: "ReLU"
  bottom: "conv4_fastVsFast_07"
  top: "conv4_fastVsFast_07"
}
layer {
  name: "drop4_fastVsFast_07"
  type: "Dropout"
  bottom: "conv4_fastVsFast_07"
  top: "conv4_fastVsFast_07"
  dropout_param {
    dropout_ratio: 0.2
  }
}
layer {
  name: "pool4_fastVsFast_07"
  type: "Pooling"
  bottom: "conv4_fastVsFast_07"
  top: "pool4_fastVsFast_07"
  pooling_param {
    pool: MAX
    kernel_size: 3
    stride: 2
  }
}
layer {
  name: "ip5_fastVsFast_07"
  type: "Convolution"
  bottom: "pool4_fastVsFast_07"
  top: "ip5_fastVsFast_07"
  param {
    name: "ip5_fastVsFast_07_w"
    lr_mult: 0.1
    decay_mult: 1000
  }
  param {
    name: "ip5_fastVsFast_07_b"
    lr_mult: 0.2
    decay_mult: 0
  }
  convolution_param {
    num_output: 2
    kernel_size: 1
    weight_filler {
      type: "gaussian"
      std: 0.01
    }
    bias_filler {
      type: "constant"
      value: 0
    }
  }
}
layer {
  name: "accuracy_fastVsFast_07"
  type: "Accuracy"
  bottom: "ip5_fastVsFast_07"
  bottom: "label_fastVsFast_07"
  top: "accuracy_fastVsFast_07"
  include: { phase: TEST }
}
layer {
  name: "loss_fastVsFast_07"
  type: "HingeLoss"
  bottom: "ip5_fastVsFast_07"
  bottom: "label_fastVsFast_07"
#  top: "loss_fastVsFast_07"
}

# Task fastVsFast, class 08
layer {
  name: "data_fastVsFast_08"
  type: "Data"
  top: "data_fastVsFast_08"
  top: "label_fastVsFast_08"
  data_param {
    source: "data/amtrak/db_fastVsFast_08_train"
    source_map: "data/amtrak/fastVsFast_0_08-images-idx3-ubyte"
    source_map: "data/amtrak/fastVsFast_1_08-images-idx3-ubyte"
    source_map: "data/amtrak/fastVsFast_2_08-images-idx3-ubyte"
    source_map: "data/amtrak/fastVsFast_3_08-images-idx3-ubyte"
    source_map: "data/amtrak/fastVsFast_4_08-images-idx3-ubyte"
    backend: LMDB_FILE
    batch_size: 1
  }
  transform_param {
    scale: 0.00390625
    crop_size: 182
    mean_value: 96
    mirror: false
    mirror_v: false
  }
  include: { phase: TRAIN }
}
layer {
  name: "data_fastVsFast_08"
  type: "Data"
  top: "data_fastVsFast_08"
  top: "label_fastVsFast_08"
  data_param {
    source: "data/amtrak/db_fastVsFast_08_test"
    source_map: "data/amtrak/fastVsFast_0_08-images-idx3-ubyte"
    source_map: "data/amtrak/fastVsFast_1_08-images-idx3-ubyte"
    source_map: "data/amtrak/fastVsFast_2_08-images-idx3-ubyte"
    source_map: "data/amtrak/fastVsFast_3_08-images-idx3-ubyte"
    source_map: "data/amtrak/fastVsFast_4_08-images-idx3-ubyte"
    backend: LMDB_FILE
    batch_size: 2
  }
  transform_param {
    scale: 0.00390625
    crop_size: 182
    mean_value: 96
    mirror: false
  }
  include: { phase: TEST }
}
layer {
  name: "conv1_fastVsFast_08"
  type: "Convolution"
  bottom: "data_fastVsFast_08"
  top: "conv1_fastVsFast_08"
  param {
    name: "conv1_w"
    lr_mult: 1
    lr_pre_mult: 0.01
    decay_mult: 1
  }
  param {
    name: "conv1_b"
    lr_mult: 2
    lr_pre_mult: 0.01
    decay_mult: 0
  }
  convolution_param {
    num_output: 48
    kernel_size: 9
    stride: 2
    weight_filler {
      type: "gaussian"
      std: 0.01
    }
    bias_filler {
      type: "constant"
      value: 0
    }
  }
}
layer {
  name: "pool1_fastVsFast_08"
  type: "Pooling"
  bottom: "conv1_fastVsFast_08"
  top: "pool1_fastVsFast_08"
  pooling_param {
    pool: MAX
    kernel_size: 3
    stride: 2
  }
}
layer {
  name: "norm1_fastVsFast_08"
  type: "LRN"
  bottom: "pool1_fastVsFast_08"
  top: "norm1_fastVsFast_08"
  lrn_param {
    local_size: 5
    alpha: 0.001
    beta: 0.5
    norm_region: WITHIN_CHANNEL
  }
}
layer {
  name: "conv2_fastVsFast_08"
  type: "Convolution"
  bottom: "norm1_fastVsFast_08"
  top: "conv2_fastVsFast_08"
  param {
    name: "conv2_w"
    lr_mult: 1
    lr_pre_mult: 0.01
    decay_mult: 1
  }
  param {
    name: "conv2_b"
    lr_mult: 2
    lr_pre_mult: 0.01
    decay_mult: 0
  }
  convolution_param {
    num_output: 64
    kernel_size: 5
    stride: 1
    weight_filler {
      type: "gaussian"
      std: 0.01
    }
    bias_filler {
      type: "constant"
      value: 0
    }
  }
}
layer {
…
    source_map: "data/amtrak/fastVsFast_0_12-images-idx3-ubyte"
    source_map: "data/amtrak/fastVsFast_1_12-images-idx3-ubyte"
    source_map: "data/amtrak/fastVsFast_2_12-images-idx3-ubyte"
    source_map: "data/amtrak/fastVsFast_3_12-images-idx3-ubyte"
    source_map: "data/amtrak/fastVsFast_4_12-images-idx3-ubyte"
    backend: LMDB_FILE
    batch_size: 1
  }
  transform_param {
    scale: 0.00390625
    crop_size: 182
    mean_value: 96
    mirror: false
    mirror_v: false
  }
  include: { phase: TRAIN }
}
layer {
  name: "data_fastVsFast_12"
  type: "Data"
  top: "data_fastVsFast_12"
  top: "label_fastVsFast_12"
  data_param {
    source: "data/amtrak/db_fastVsFast_12_test"
    source_map: "data/amtrak/fastVsFast_0_12-images-idx3-ubyte"
    source_map: "data/amtrak/fastVsFast_1_12-images-idx3-ubyte"
    source_map: "data/amtrak/fastVsFast_2_12-images-idx3-ubyte"
    source_map: "data/amtrak/fastVsFast_3_12-images-idx3-ubyte"
    source_map: "data/amtrak/fastVsFast_4_12-images-idx3-ubyte"
    backend: LMDB_FILE
    batch_size: 2
  }
  transform_param {
    scale: 0.00390625
    crop_size: 182
    mean_value: 96
    mirror: false
  }
  include: { phase: TEST }
}
layer {
  name: "conv1_fastVsFast_12"
  type: "Convolution"
  bottom: "data_fastVsFast_12"
  top: "conv1_fastVsFast_12"
  param {
    name: "conv1_w"
    lr_mult: 1
    lr_pre_mult: 0.01
    decay_mult: 1
  }
  param {
    name: "conv1_b"
    lr_mult: 2
    lr_pre_mult: 0.01
    decay_mult: 0
  }
  convolution_param {
    num_output: 48
    kernel_size: 9
    stride: 2
    weight_filler {
      type: "gaussian"
      std: 0.01
    }
    bias_filler {
      type: "constant"
      value: 0
    }
  }
}
layer {
  name: "pool1_fastVsFast_12"
  type: "Pooling"
  bottom: "conv1_fastVsFast_12"
  top: "pool1_fastVsFast_12"
  pooling_param {
    pool: MAX
    kernel_size: 3
    stride: 2
  }
}
layer {
  name: "norm1_fastVsFast_12"
  type: "LRN"
  bottom: "pool1_fastVsFast_12"
  top: "norm1_fastVsFast_12"
  lrn_param {
    local_size: 5
    alpha: 0.001
    beta: 0.5
    norm_region: WITHIN_CHANNEL
  }
}
layer {
  name: "conv2_fastVsFast_12"
  type: "Convolution"
  bottom: "norm1_fastVsFast_12"
  top: "conv2_fastVsFast_12"
  param {
    name: "conv2_w"
    lr_mult: 1
    lr_pre_mult: 0.01
    decay_mult: 1
  }
  param {
    name: "conv2_b"
    lr_mult: 2
    lr_pre_mult: 0.01
    decay_mult: 0
  }
  convolution_param {
    num_output: 64
    kernel_size: 5
    stride: 1
    weight_filler {
      type: "gaussian"
      std: 0.01
    }
    bias_filler {
      type: "constant"
      value: 0
    }
  }
}
layer {
  name: "relu2_fastVsFast_12"
  type: "ReLU"
  bottom: "conv2_fastVsFast_12"
  top: "conv2_fastVsFast_12"
}
layer {
  name: "pool2_fastVsFast_12"
  type: "Pooling"
  bottom: "conv2_fastVsFast_12"
  top: "pool2_fastVsFast_12"
  pooling_param {
    pool: MAX
    kernel_size: 3
    stride: 2
  }
}
layer {
  name: "conv3_fastVsFast_12"
  type: "Convolution"
  bottom: "pool2_fastVsFast_12"
  top: "conv3_fastVsFast_12"
  param {
    name: "conv3_w"
    lr_mult: 1
    lr_pre_mult: 0.01
    decay_mult: 1
  }
  param {
    name: "conv3_b"
    lr_mult: 2
    lr_pre_mult: 0.01
    decay_mult: 0
  }
  convolution_param {
    num_output: 256
    kernel_size: 5
    weight_filler {
      type: "gaussian"
      std: 0.01
    }
    bias_filler {
      type: "constant"
      value: 0
    }
  }
}
layer {
  name: "relu3_fastVsFast_12"
  type: "ReLU"
  bottom: "conv3_fastVsFast_12"
  top: "conv3_fastVsFast_12"
}
layer {
  name: "drop3_fastVsFast_12"
  type: "Dropout"
  bottom: "conv3_fastVsFast_12"
  top: "conv3_fastVsFast_12"
  dropout_param {
    dropout_ratio: 0.1
  }
}
layer {
  name: "pool3_fastVsFast_12"
  type: "Pooling"
  bottom: "conv3_fastVsFast_12"
  top: "pool3_fastVsFast_12"
  pooling_param {
    pool: MAX
    kernel_size: 3
    stride: 2
  }
}
layer {
  name: "conv4_fastVsFast_12"
  type: "Convolution"
  bottom: "pool3_fastVsFast_12"
  top: "conv4_fastVsFast_12"
  propagate_down: false
  param {
    name: "conv4_w"
    lr_mult: 1
    lr_pre_mult: 0.02
    decay_mult: 10
  }
  param {
    name: "conv4_b"
    lr_mult: 2
    lr_pre_mult: 0.02
    decay_mult: 0
  }
  convolution_param {
    num_output: 512
    kernel_size: 5
    weight_filler {
      type: "gaussian"
      std: 0.01
    }
    bias_filler {
      type: "constant"
      value: 0
    }
  }
}
layer {
  name: "relu4_fastVsFast_12"
  type: "ReLU"
  bottom: "conv4_fastVsFast_12"
  top: "conv4_fastVsFast_12"
}
layer {
  name: "drop4_fastVsFast_12"
  type: "Dropout"
  bottom: "conv4_fastVsFast_12"
  top: "conv4_fastVsFast_12"
  dropout_param {
    dropout_ratio: 0.2
  }
}
layer {
  name: "pool4_fastVsFast_12"
  type: "Pooling"
  bottom: "conv4_fastVsFast_12"
  top: "pool4_fastVsFast_12"
  pooling_param {
    pool: MAX
    kernel_size: 3
    stride: 2
  }
}
layer {
  name: "ip5_fastVsFast_12"
  type: "Convolution"
  bottom: "pool4_fastVsFast_12"
  top: "ip5_fastVsFast_12"
  param {
    name: "ip5_fastVsFast_12_w"
    lr_mult: 0.1
    decay_mult: 1000
  }
  param {
    name: "ip5_fastVsFast_12_b"
    lr_mult: 0.2
    decay_mult: 0
  }
  convolution_param {
    num_output: 2
    kernel_size: 1
    weight_filler {
      type: "gaussian"
      std: 0.01
    }
    bias_filler {
      type: "constant"
      value: 0
    }
  }
}
layer {
  name: "accuracy_fastVsFast_12"
  type: "Accuracy"
  bottom: "ip5_fastVsFast_12"
  bottom: "label_fastVsFast_12"
  top: "accuracy_fastVsFast_12"
  include: { phase: TEST }
}
layer {
  name: "loss_fastVsFast_12"
  type: "HingeLoss"
  bottom: "ip5_fastVsFast_12"
  bottom: "label_fastVsFast_12"
#  top: "loss_fastVsFast_12"
}

# Task fastVsFast, class 13
layer {
  name: "data_fastVsFast_13"
  type: "Data"
  top: "data_fastVsFast_13"
  top: "label_fastVsFast_13"
  data_param {
    source: "data/amtrak/db_fastVsFast_13_train"
    source_map: "data/amtrak/fastVsFast_0_13-images-idx3-ubyte"
    source_map: "data/amtrak/fastVsFast_1_13-images-idx3-ubyte"
    source_map: "data/amtrak/fastVsFast_2_13-images-idx3-ubyte"
    source_map: "data/amtrak/fastVsFast_3_13-images-idx3-ubyte"
    source_map: "data/amtrak/fastVsFast_4_13-images-idx3-ubyte"
    backend: LMDB_FILE
    batch_size: 1
  }
  transform_param {
    scale: 0.00390625
    crop_size: 182
    mean_value: 96
    mirror: false
    mirror_v: false
  }
  include: { phase: TRAIN }
}
layer {
  name: "data_fastVsFast_13"
  type: "Data"
  top: "data_fastVsFast_13"
  top: "label_fastVsFast_13"
  data_param {
    source: "data/amtrak/db_fastVsFast_13_test"
    source_map: "data/amtrak/fastVsFast_0_13-images-idx3-ubyte"
    source_map: "data/amtrak/fastVsFast_1_13-images-idx3-ubyte"
    source_map: "data/amtrak/fastVsFast_2_13-images-idx3-ubyte"
    source_map: "data/amtrak/fastVsFast_3_13-images-idx3-ubyte"
    source_map: "data/amtrak/fastVsFast_4_13-images-idx3-ubyte"
    backend: LMDB_FILE
    batch_size: 2
  }
  transform_param {
    scale: 0.00390625
    crop_size: 182
    mean_value: 96
    mirror: false
  }
  include: { phase: TEST }
}
layer {
  name: "conv1_fastVsFast_13"
  type: "Convolution"
  bottom: "data_fastVsFast_13"
  top: "conv1_fastVsFast_13"
  param {
    name: "conv1_w"
    lr_mult: 1
    lr_pre_mult: 0.01
    decay_mult: 1
  }
  param {
    name: "conv1_b"
    lr_mult: 2
    lr_pre_mult: 0.01
    decay_mult: 0
  }
  convolution_param {
    num_output: 48
    kernel_size: 9
    stride: 2
    weight_filler {
      type: "gaussian"
      std: 0.01
    }
    bias_filler {
      type: "constant"
      value: 0
    }
  }
}
layer {
  name: "pool1_fastVsFast_13"
  type: "Pooling"
  bottom: "conv1_fastVsFast_13"
  top: "pool1_fastVsFast_13"
  pooling_param {
    pool: MAX
    kernel_size: 3
    stride: 2
  }
}
layer {
  name: "norm1_fastVsFast_13"
  type: "LRN"
  bottom: "pool1_fastVsFast_13"
  top: "norm1_fastVsFast_13"
  lrn_param {
    local_size: 5
    alpha: 0.001
    beta: 0.5
    norm_region: WITHIN_CHANNEL
  }
}
layer {
  name: "conv2_fastVsFast_13"
  type: "Convolution"
  bottom: "norm1_fastVsFast_13"
  top: "conv2_fastVsFast_13"
  param {
    name: "conv2_w"
    lr_mult: 1
    lr_pre_mult: 0.01
    decay_mult: 1
  }
  param {
    name: "conv2_b"
    lr_mult: 2
    lr_pre_mult: 0.01
    decay_mult: 0
  }
  convolution_param {
    num_output: 64
    kernel_size: 5
    stride: 1
    weight_filler {
      type: "gaussian"
      std: 0.01
    }
    bias_filler {
      type: "constant"
      value: 0
    }
  }
}
layer {
  name: "relu2_fastVsFast_13"
  type: "ReLU"
  bottom: "conv2_fastVsFast_13"
  top: "conv2_fastVsFast_13"
}
layer {
  name: "pool2_fastVsFast_13"
  type: "Pooling"
  bottom: "conv2_fastVsFast_13"
  top: "pool2_fastVsFast_13"
  pooling_param {
    pool: MAX
    kernel_size: 3
    stride: 2
  }
}
layer {
  name: "conv3_fastVsFast_13"
  type: "Convolution"
  bottom: "pool2_fastVsFast_13"
  top: "conv3_fastVsFast_13"
  param {
    name: "conv3_w"
    lr_mult: 1
    lr_pre_mult: 0.01
    decay_mult: 1
  }
  param {
    name: "conv3_b"
    lr_mult: 2
    lr_pre_mult: 0.01
    decay_mult: 0
  }
  convolution_param {
    num_output: 256
    kernel_size: 5
    weight_filler {
      type: "gaussian"
      std: 0.01
    }
    bias_filler {
      type: "constant"
      value: 0
    }
  }
}
layer {
  name: "relu3_fastVsFast_13"
  type: "ReLU"
  bottom: "conv3_fastVsFast_13"
  top: "conv3_fastVsFast_13"
}
layer {
  name: "drop3_fastVsFast_13"
  type: "Dropout"
  bottom: "conv3_fastVsFast_13"
  top: "conv3_fastVsFast_13"
  dropout_param {
    dropout_ratio: 0.1
  }
}
layer {
  name: "pool3_fastVsFast_13"
  type: "Pooling"
  bottom: "conv3_fastVsFast_13"
  top: "pool3_fastVsFast_13"
  pooling_param {
    pool: MAX
    kernel_size: 3
    stride: 2
  }
}
layer {
  name: "conv4_fastVsFast_13"
  type: "Convolution"
  bottom: "pool3_fastVsFast_13"
  top: "conv4_fastVsFast_13"
  propagate_down: false
  param {
    name: "conv4_w"
    lr_mult: 1
    lr_pre_mult: 0.02
    decay_mult: 10
  }
  param {
    name: "conv4_b"
    lr_mult: 2
    lr_pre_mult: 0.02
    decay_mult: 0
  }
  convolution_param {
    num_output: 512
    kernel_size: 5
    weight_filler {
      type: "gaussian"
      std: 0.01
    }
    bias_filler {
      type: "constant"
      value: 0
    }
  }
}
layer {
  name: "relu4_fastVsFast_13"
  type: "ReLU"
  bottom: "conv4_fastVsFast_13"
  top: "conv4_fastVsFast_13"
}
layer {
  name: "drop4_fastVsFast_13"
  type: "Dropout"
  bottom: "conv4_fastVsFast_13"
  top: "conv4_fastVsFast_13"
  dropout_param {
    dropout_ratio: 0.2
  }
}
layer {
  name: "pool4_fastVsFast_13"
  type: "Pooling"
  bottom: "conv4_fastVsFast_13"
  top: "pool4_fastVsFast_13"
  pooling_param {
    pool: MAX
    kernel_size: 3
    stride: 2
  }
}
layer {
  name: "ip5_fastVsFast_13"
  type: "Convolution"
  bottom: "pool4_fastVsFast_13"
  top: "ip5_fastVsFast_13"
  param {
    name: "ip5_fastVsFast_13_w"
    lr_mult: 0.1
    decay_mult: 1000
  }
  param {
    name: "ip5_fastVsFast_13_b"
    lr_mult: 0.2
    decay_mult: 0
  }
  convolution_param {
    num_output: 2
    kernel_size: 1
    weight_filler {
      type: "gaussian"
      std: 0.01
    }
    bias_filler {
      type: "constant"
      value: 0
    }
  }
}
layer {
  name: "accuracy_fastVsFast_13"
  type: "Accuracy"
  bottom: "ip5_fastVsFast_13"
  bottom: "label_fastVsFast_13"
  top: "accuracy_fastVsFast_13"
  include: { phase: TEST }
}
layer {
  name: "loss_fastVsFast_13"
  type: "HingeLoss"
  bottom: "ip5_fastVsFast_13"
  bottom: "label_fastVsFast_13"
#  top: "loss_fastVsFast_13"
}

# Task fastVsFast, class 14
layer {
  name: "data_fastVsFast_14"
  type: "Data"
  top: "data_fastVsFast_14"
  top: "label_fastVsFast_14"
  data_param {
    source: "data/amtrak/db_fastVsFast_14_train"
    source_map: "data/amtrak/fastVsFast_0_14-images-idx3-ubyte"
    source_map: "data/amtrak/fastVsFast_1_14-images-idx3-ubyte"
    source_map: "data/amtrak/fastVsFast_2_14-images-idx3-ubyte"
    source_map: "data/amtrak/fastVsFast_3_14-images-idx3-ubyte"
    source_map: "data/amtrak/fastVsFast_4_14-images-idx3-ubyte"
    backend: LMDB_FILE
    batch_size: 1
  }
  transform_param {
    scale: 0.00390625
    crop_size: 182
    mean_value: 96
    mirror: false
    mirror_v: false
  }
  include: { phase: TRAIN }
}
layer {
  name: "data_fastVsFast_14"
  type: "Data"
  top: "data_fastVsFast_14"
  top: "label_fastVsFast_14"
  data_param {
    source: "data/amtrak/db_fastVsFast_14_test"
    source_map: "data/amtrak/fastVsFast_0_14-images-idx3-ubyte"
    source_map: "data/amtrak/fastVsFast_1_14-images-idx3-ubyte"
    source_map: "data/amtrak/fastVsFast_2_14-images-idx3-ubyte"
    source_map: "data/amtrak/fastVsFast_3_14-images-idx3-ubyte"
    source_map: "data/amtrak/fastVsFast_4_14-images-idx3-ubyte"
    backend: LMDB_FILE
    batch_size: 2
  }
  transform_param {
    scale: 0.00390625
    crop_size: 182
    mean_value: 96
    mirror: false
  }
  include: { phase: TEST }
}
layer {
  name: "conv1_fastVsFast_14"
  type: "Convolution"
  bottom: "data_fastVsFast_14"
  top: "conv1_fastVsFast_14"
  param {
    name: "conv1_w"
    lr_mult: 1
    lr_pre_mult: 0.01
    decay_mult: 1
  }
  param {
    name: "conv1_b"
    lr_mult: 2
    lr_pre_mult: 0.01
    decay_mult: 0
  }
  convolution_param {
    num_output: 48
    kernel_size: 9
    stride: 2
    weight_filler {
      type: "gaussian"
      std: 0.01
    }
    bias_filler {
      type: "constant"
      value: 0
    }
  }
}
layer {
  name: "pool1_fastVsFast_14"
  type: "Pooling"
  bottom: "conv1_fastVsFast_14"
  top: "pool1_fastVsFast_14"
  pooling_param {
    pool: MAX
    kernel_size: 3
    stride: 2
  }
}
layer {
  name: "norm1_fastVsFast_14"
  type: "LRN"
  bottom: "pool1_fastVsFast_14"
  top: "norm1_fastVsFast_14"
  lrn_param {
    local_size: 5
    alpha: 0.001
    beta: 0.5
    norm_region: WITHIN_CHANNEL
  }
}
layer {
  name: "conv2_fastVsFast_14"
  type: "Convolution"
  bottom: "norm1_fastVsFast_14"
  top: "conv2_fastVsFast_14"
  param {
    name: "conv2_w"
    lr_mult: 1
    lr_pre_mult: 0.01
    decay_mult: 1
  }
  param {
    name: "conv2_b"
    lr_mult: 2
    lr_pre_mult: 0.01
    decay_mult: 0
  }
  convolution_param {
    num_output: 64
    kernel_size: 5
    stride: 1
    weight_filler {
      type: "gaussian"
      std: 0.01
    }
    bias_filler {
      type: "constant"
      value: 0
    }
  }
}
layer {
  name: "relu2_fastVsFast_14"
  type: "ReLU"
  bottom: "conv2_fastVsFast_14"
  top: "conv2_fastVsFast_14"
}
layer {
  name: "pool2_fastVsFast_14"
  type: "Pooling"
  bottom: "conv2_fastVsFast_14"
  top: "pool2_fastVsFast_14"
  pooling_param {
    pool: MAX
    kernel_size: 3
    stride: 2
  }
}
layer {
  name: "conv3_fastVsFast_14"
  type: "Convolution"
  bottom: "pool2_fastVsFast_14"
  top: "conv3_fastVsFast_14"
  param {
    name: "conv3_w"
    lr_mult: 1
    lr_pre_mult: 0.01
    decay_mult: 1
  }
  param {
    name: "conv3_b"
    lr_mult: 2
    lr_pre_mult: 0.01
    decay_mult: 0
  }
  convolution_param {
    num_output: 256
    kernel_size: 5
    weight_filler {
      type: "gaussian"
      std: 0.01
    }
    bias_filler {
      type: "constant"
      value: 0
    }
  }
}
layer {
  name: "relu3_fastVsFast_14"
  type: "ReLU"
  bottom: "conv3_fastVsFast_14"
  top: "conv3_fastVsFast_14"
}
layer {
  name: "drop3_fastVsFast_14"
  type: "Dropout"
  bottom: "conv3_fastVsFast_14"
  top: "conv3_fastVsFast_14"
  dropout_param {
    dropout_ratio: 0.1
  }
}
layer {
  name: "pool3_fastVsFast_14"
  type: "Pooling"
  bottom: "conv3_fastVsFast_14"
  top: "pool3_fastVsFast_14"
  pooling_param {
    pool: MAX
    kernel_size: 3
    stride: 2
  }
}
layer {
  name: "conv4_fastVsFast_14"
  type: "Convolution"
  bottom: "pool3_fastVsFast_14"
  top: "conv4_fastVsFast_14"
  propagate_down: false
  param {
    name: "conv4_w"
    lr_mult: 1
    lr_pre_mult: 0.02
    decay_mult: 10
  }
  param {
    name: "conv4_b"
    lr_mult: 2
    lr_pre_mult: 0.02
    decay_mult: 0
  }
  convolution_param {
    num_output: 512
    kernel_size: 5
    weight_filler {
      type: "gaussian"
      std: 0.01
    }
    bias_filler {
      type: "constant"
      value: 0
    }
  }
}
layer {
  name: "relu4_fastVsFast_14"
  type: "ReLU"
  bottom: "conv4_fastVsFast_14"
  top: "conv4_fastVsFast_14"
}
layer {
  name: "drop4_fastVsFast_14"
  type: "Dropout"
  bottom: "conv4_fastVsFast_14"
  top: "conv4_fastVsFast_14"
  dropout_param {
    dropout_ratio: 0.2
  }
}
layer {
  name: "pool4_fastVsFast_14"
  type: "Pooling"
  bottom: "conv4_fastVsFast_14"
  top: "pool4_fastVsFast_14"
  pooling_param {
    pool: MAX
    kernel_size: 3
    stride: 2
  }
}
layer {
  name: "ip5_fastVsFast_14"
  type: "Convolution"
  bottom: "pool4_fastVsFast_14"
  top: "ip5_fastVsFast_14"
  param {
    name: "ip5_fastVsFast_14_w"
    lr_mult: 0.1
    decay_mult: 1000
  }
  param {
    name: "ip5_fastVsFast_14_b"
    lr_mult: 0.2
    decay_mult: 0
  }
  convolution_param {
    num_output: 2
    kernel_size: 1
    weight_filler {
      type: "gaussian"
      std: 0.01
    }
    bias_filler {
      type: "constant"
      value: 0
    }
  }
}
layer {
  name: "accuracy_fastVsFast_14"
  type: "Accuracy"
  bottom: "ip5_fastVsFast_14"
  bottom: "label_fastVsFast_14"
  top: "accuracy_fastVsFast_14"
  include: { phase: TEST }
}
layer {
  name: "loss_fastVsFast_14"
  type: "HingeLoss"
  bottom: "ip5_fastVsFast_14"
  bottom: "label_fastVsFast_14"
#  top: "loss_fastVsFast_14"
}

# Task fastVsFast, class 15
layer {
  name: "data_fastVsFast_15"
  type: "Data"
  top: "data_fastVsFast_15"
  top: "label_fastVsFast_15"
  data_param {
    source: "data/amtrak/db_fastVsFast_15_train"
    source_map: "data/amtrak/fastVsFast_0_15-images-idx3-ubyte"
    source_map: "data/amtrak/fastVsFast_1_15-images-idx3-ubyte"
    source_map: "data/amtrak/fastVsFast_2_15-images-idx3-ubyte"
    source_map: "data/amtrak/fastVsFast_3_15-images-idx3-ubyte"
    source_map: "data/amtrak/fastVsFast_4_15-images-idx3-ubyte"
    backend: LMDB_FILE
    batch_size: 1
  }
  transform_param {
    scale: 0.00390625
    crop_size: 182
    mean_value: 96
    mirror: false
    mirror_v: false
  }
  include: { phase: TRAIN }
}
layer {
  name: "data_fastVsFast_15"
  type: "Data"
  top: "data_fastVsFast_15"
  top: "label_fastVsFast_15"
  data_param {
    source: "data/amtrak/db_fastVsFast_15_test"
    source_map: "data/amtrak/fastVsFast_0_15-images-idx3-ubyte"
    source_map: "data/amtrak/fastVsFast_1_15-images-idx3-ubyte"
    source_map: "data/amtrak/fastVsFast_2_15-images-idx3-ubyte"
    source_map: "data/amtrak/fastVsFast_3_15-images-idx3-ubyte"
    source_map: "data/amtrak/fastVsFast_4_15-images-idx3-ubyte"
    backend: LMDB_FILE
    batch_size: 2
  }
  transform_param {
    scale: 0.00390625
    crop_size: 182
    mean_value: 96
    mirror: false
  }
  include: { phase: TEST }
}
layer {
  name: "conv1_fastVsFast_15"
  type: "Convolution"
  bottom: "data_fastVsFast_15"
  top: "conv1_fastVsFast_15"
  param {
    name: "conv1_w"
    lr_mult: 1
    lr_pre_mult: 0.01
    decay_mult: 1
  }
  param {
    name: "conv1_b"
    lr_mult: 2
    lr_pre_mult: 0.01
    decay_mult: 0
  }
  convolution_param {
    num_output: 48
    kernel_size: 9
    stride: 2
    weight_filler {
      type: "gaussian"
      std: 0.01
    }
    bias_filler {
      type: "constant"
      value: 0
    }
  }
}
layer {
  name: "pool1_fastVsFast_15"
  type: "Pooling"
  bottom: "conv1_fastVsFast_15"
  top: "pool1_fastVsFast_15"
  pooling_param {
    pool: MAX
    kernel_size: 3
    stride: 2
  }
}
layer {
  name: "norm1_fastVsFast_15"
  type: "LRN"
  bottom: "pool1_fastVsFast_15"
  top: "norm1_fastVsFast_15"
  lrn_param {
    local_size: 5
    alpha: 0.001
    beta: 0.5
    norm_region: WITHIN_CHANNEL
  }
}
layer {
  name: "conv2_fastVsFast_15"
  type: "Convolution"
  bottom: "norm1_fastVsFast_15"
  top: "conv2_fastVsFast_15"
  param {
    name: "conv2_w"
    lr_mult: 1
    lr_pre_mult: 0.01
    decay_mult: 1
  }
  param {
    name: "conv2_b"
    lr_mult: 2
    lr_pre_mult: 0.01
    decay_mult: 0
  }
  convolution_param {
    num_output: 64
    kernel_size: 5
    stride: 1
    weight_filler {
      type: "gaussian"
      std: 0.01
    }
    bias_filler {
      type: "constant"
      value: 0
    }
  }
}
layer {
  name: "relu2_fastVsFast_15"
  type: "ReLU"
  bottom: "conv2_fastVsFast_15"
  top: "conv2_fastVsFast_15"
}
layer {
  name: "pool2_fastVsFast_15"
  type: "Pooling"
  bottom: "conv2_fastVsFast_15"
  top: "pool2_fastVsFast_15"
  pooling_param {
    pool: MAX
    kernel_size: 3
    stride: 2
  }
}
layer {
  name: "conv3_fastVsFast_15"
  type: "Convolution"
  bottom: "pool2_fastVsFast_15"
  top: "conv3_fastVsFast_15"
  param {
    name: "conv3_w"
    lr_mult: 1
    lr_pre_mult: 0.01
    decay_mult: 1
  }
  param {
    name: "conv3_b"
    lr_mult: 2
    lr_pre_mult: 0.01
    decay_mult: 0
  }
  convolution_param {
    num_output: 256
    kernel_size: 5
    weight_filler {
      type: "gaussian"
      std: 0.01
    }
    bias_filler {
      type: "constant"
      value: 0
    }
  }
}
layer {
  name: "relu3_fastVsFast_15"
  type: "ReLU"
  bottom: "conv3_fastVsFast_15"
  top: "conv3_fastVsFast_15"
}
layer {
  name: "drop3_fastVsFast_15"
  type: "Dropout"
  bottom: "conv3_fastVsFast_15"
  top: "conv3_fastVsFast_15"
  dropout_param {
    dropout_ratio: 0.1
  }
}
layer {
  name: "pool3_fastVsFast_15"
  type: "Pooling"
  bottom: "conv3_fastVsFast_15"
  top: "pool3_fastVsFast_15"
  pooling_param {
    pool: MAX
    kernel_size: 3
    stride: 2
  }
}
layer {
  name: "conv4_fastVsFast_15"
  type: "Convolution"
  bottom: "pool3_fastVsFast_15"
  top: "conv4_fastVsFast_15"
  propagate_down: false
  param {
    name: "conv4_w"
    lr_mult: 1
    lr_pre_mult: 0.02
    decay_mult: 10
  }
  param {
    name: "conv4_b"
    lr_mult: 2
    lr_pre_mult: 0.02
    decay_mult: 0
  }
  convolution_param {
    num_output: 512
    kernel_size: 5
    weight_filler {
      type: "gaussian"
      std: 0.01
    }
    bias_filler {
      type: "constant"
      value: 0
    }
  }
}
layer {
  name: "relu4_fastVsFast_15"
  type: "ReLU"
  bottom: "conv4_fastVsFast_15"
  top: "conv4_fastVsFast_15"
}
layer {
  name: "drop4_fastVsFast_15"
  type: "Dropout"
  bottom: "conv4_fastVsFast_15"
  top: "conv4_fastVsFast_15"
  dropout_param {
    dropout_ratio: 0.2
  }
}
layer {
  name: "pool4_fastVsFast_15"
  type: "Pooling"
  bottom: "conv4_fastVsFast_15"
  top: "pool4_fastVsFast_15"
  pooling_param {
    pool: MAX
    kernel_size: 3
    stride: 2
  }
}
layer {
  name: "ip5_fastVsFast_15"
  type: "Convolution"
  bottom: "pool4_fastVsFast_15"
  top: "ip5_fastVsFast_15"
  param {
    name: "ip5_fastVsFast_15_w"
    lr_mult: 0.1
    decay_mult: 1000
  }
  param {
    name: "ip5_fastVsFast_15_b"
    lr_mult: 0.2
    decay_mult: 0
  }
  convolution_param {
    num_output: 2
    kernel_size: 1
    weight_filler {
      type: "gaussian"
      std: 0.01
    }
    bias_filler {
      type: "constant"
      value: 0
    }
  }
}
layer {
  name: "accuracy_fastVsFast_15"
  type: "Accuracy"
  bottom: "ip5_fastVsFast_15"
  bottom: "label_fastVsFast_15"
  top: "accuracy_fastVsFast_15"
  include: { phase: TEST }
}
layer {
  name: "loss_fastVsFast_15"
  type: "HingeLoss"
  bottom: "ip5_fastVsFast_15"
  bottom: "label_fastVsFast_15"
#  top: "loss_fastVsFast_15"
}

# Task Fastener ROC accuracy
layer {
  name: "data_roc"
  type: "Data"
  top: "data_roc"
  top: "label_roc"
  data_param {
    source: "examples/amtrak/db_fastVsBg_test"
    source_map: "data/amtrak/test0-fast-images-idx3-ubyte"
    source_map: "data/amtrak/test1-fast-images-idx3-ubyte"
    source_map: "data/amtrak/test2-fast-images-idx3-ubyte"
    source_map: "data/amtrak/test3-fast-images-idx3-ubyte"
    source_map: "data/amtrak/test4-fast-images-idx3-ubyte"
    backend: LMDB_FILE
    batch_size: 2
  }
  transform_param {
    scale: 0.00390625
    mean_value: 96
    mirror: false
    mirror_v: false
  }
  include: { phase: TEST }
}
layer {
  name: "data_roc"
  type: "DummyData"
  top: "data_roc"
  dummy_data_param: {
    shape: {
      dim: 1
      dim: 1
      dim: 400
      dim: 240
    }
  }
  include: { phase: TRAIN }
}
layer {
  name: "label_roc"
  type: "DummyData"
  top: "label_roc"
  dummy_data_param: {
    shape: {
      dim: 1
      dim: 1
    }
  }
  include: { phase: TRAIN }
}
layer {
  name: "conv1_roc"
  type: "Convolution"
  bottom: "data_roc"
  top: "conv1_roc"
  param {
    name: "conv1_w"
    lr_mult: 1
    lr_pre_mult: 0.01
    decay_mult: 1
  }
  param {
    name: "conv1_b"
    lr_mult: 2
    lr_pre_mult: 0.01
    decay_mult: 0
  }
  convolution_param {
    num_output: 48
    kernel_size: 9
    stride: 2
    weight_filler {
      type: "gaussian"
      std: 0.01
    }
    bias_filler {
      type: "constant"
      value: 0
    }
  }
}
layer {
  name: "pool1_roc"
  type: "Pooling"
  bottom: "conv1_roc"
  top: "pool1_roc"
  pooling_param {
    pool: MAX
    kernel_size: 3
    stride: 2
  }
}
layer {
  name: "norm1_roc"
  type: "LRN"
  bottom: "pool1_roc"
  top: "norm1_roc"
  lrn_param {
    local_size: 5
    alpha: 0.001
    beta: 0.5
    norm_region: WITHIN_CHANNEL
  }
}
layer {
  name: "conv2_roc"
  type: "Convolution"
  bottom: "norm1_roc"
  top: "conv2_roc"
  param {
    name: "conv2_w"
    lr_mult: 1
    lr_pre_mult: 0.01
    decay_mult: 1
  }
  param {
    name: "conv2_b"
    lr_mult: 2
    lr_pre_mult: 0.01
    decay_mult: 0
  }
  convolution_param {
    num_output: 64
    kernel_size: 5
    stride: 1
    weight_filler {
      type: "gaussian"
      std: 0.01
    }
    bias_filler {
      type: "constant"
      value: 0
    }
  }
}
layer {
  name: "relu2_roc"
  type: "ReLU"
  bottom: "conv2_roc"
  top: "conv2_roc"
}
layer {
  name: "pool2_roc"
  type: "Pooling"
  bottom: "conv2_roc"
  top: "pool2_roc"
  pooling_param {
    pool: MAX
    kernel_size: 3
    stride: 2
  }
}
layer {
  name: "conv3_roc"
  type: "Convolution"
  bottom: "pool2_roc"
  top: "conv3_roc"
  param {
    name: "conv3_w"
    lr_mult: 1
    lr_pre_mult: 0.01
    decay_mult: 1
  }
  param {
    name: "conv3_b"
    lr_mult: 2
    lr_pre_mult: 0.01
    decay_mult: 0
  }
  convolution_param {
    num_output: 256
    kernel_size: 5
    weight_filler {
      type: "gaussian"
      std: 0.01
    }
    bias_filler {
      type: "constant"
      value: 0
    }
  }
}
layer {
  name: "relu3_roc"
  type: "ReLU"
  bottom: "conv3_roc"
  top: "conv3_roc"
}
layer {
  name: "drop3_roc"
  type: "Dropout"
  bottom: "conv3_roc"
  top: "conv3_roc"
  dropout_param {
    dropout_ratio: 0.1
  }
}
layer {
  name: "pool3_roc"
  type: "Pooling"
  bottom: "conv3_roc"
  top: "pool3_roc"
  pooling_param {
    pool: MAX
    kernel_size: 3
    stride: 2
  }
}
layer {
  name: "conv4_roc"
  type: "Convolution"
  bottom: "pool3_roc"
  top: "conv4_roc"
  param {
    name: "conv4_w"
    lr_mult: 1
    lr_pre_mult: 0.02
    decay_mult: 10
  }
  param {
    name: "conv4_b"
    lr_mult: 2
    lr_pre_mult: 0.02
    decay_mult: 0
  }
  convolution_param {
    num_output: 512
    kernel_size: 5
    weight_filler {
      type: "gaussian"
      std: 0.01
    }
    bias_filler {
      type: "constant"
      value: 0
    }
  }
}
layer {
  name: "relu4_roc"
  type: "ReLU"
  bottom: "conv4_roc"
  top: "conv4_roc"
}
layer {
  name: "drop4_roc"
  type: "Dropout"
  bottom: "conv4_roc"
  top: "conv4_roc"
  dropout_param {
    dropout_ratio: 0.2
  }
}
layer {
  name: "pool4_roc"
  type: "Pooling"
  bottom: "conv4_roc"
  top: "pool4_roc"
  pooling_param {
    pool: MAX
    kernel_size: 3
    stride: 1
  }
}
layer {
  name: "ip5_fastVsBg_00_roc"
  type: "Convolution"
  bottom: "pool4_roc"
  top: "ip5_fastVsBg_00_roc"
  param {
    name: "ip5_fastVsBg_00_w"
    lr_mult: 0.1
    decay_mult: 1000
  }
  param {
    name: "ip5_fastVsBg_00_b"
    lr_mult: 0.2
    decay_mult: 0
  }
  convolution_param {
    num_output: 2
    kernel_size: 1
    weight_filler {
      type: "gaussian"
      std: 0.01
    }
    bias_filler {
      type: "constant"
      value: 0
    }
  }
}
layer {
  name: "loss_fastVsBg_00_roc"
  type: "HingeLoss"
  propagate_down: false
  propagate_down: false
  bottom: "ip5_fastVsBg_00_roc"
  bottom: "label_roc"
#  top: "loss_fastVsBg_00_roc"
}
layer {
  name: "ip5_fastVsBg_01_roc"
  type: "Convolution"
  bottom: "pool4_roc"
  top: "ip5_fastVsBg_01_roc"
  param {
    name: "ip5_fastVsBg_01_w"
    lr_mult: 0.1
    decay_mult: 1000
  }
  param {
    name: "ip5_fastVsBg_01_b"
    lr_mult: 0.2
    decay_mult: 0
  }
  convolution_param {
    num_output: 2
    kernel_size: 1
    weight_filler {
      type: "gaussian"
      std: 0.01
    }
    bias_filler {
      type: "constant"
      value: 0
    }
  }
}
layer {
  name: "loss_fastVsBg_01_roc"
  type: "HingeLoss"
  propagate_down: false
  propagate_down: false
  bottom: "ip5_fastVsBg_01_roc"
  bottom: "label_roc"
#  top: "loss_fastVsBg_01_roc"
}
layer {
  name: "ip5_fastVsBg_02_roc"
  type: "Convolution"
  bottom: "pool4_roc"
  top: "ip5_fastVsBg_02_roc"
  param {
    name: "ip5_fastVsBg_02_w"
    lr_mult: 0.1
    decay_mult: 1000
  }
  param {
    name: "ip5_fastVsBg_02_b"
    lr_mult: 0.2
    decay_mult: 0
  }
  convolution_param {
    num_output: 2
    kernel_size: 1
    weight_filler {
      type: "gaussian"
      std: 0.01
    }
    bias_filler {
      type: "constant"
      value: 0
    }
  }
}
layer {
  name: "loss_fastVsBg_02_roc"
  type: "HingeLoss"
  propagate_down: false
  propagate_down: false
  bottom: "ip5_fastVsBg_02_roc"
  bottom: "label_roc"
#  top: "loss_fastVsBg_02_roc"
}
layer {
  name: "ip5_fastVsBg_03_roc"
  type: "Convolution"
  bottom: "pool4_roc"
  top: "ip5_fastVsBg_03_roc"
  param {
    name: "ip5_fastVsBg_03_w"
    lr_mult: 0.1
    decay_mult: 1000
  }
  param {
    name: "ip5_fastVsBg_03_b"
    lr_mult: 0.2
    decay_mult: 0
  }
  convolution_param {
    num_output: 2
    kernel_size: 1
    weight_filler {
      type: "gaussian"
      std: 0.01
    }
    bias_filler {
      type: "constant"
      value: 0
    }
  }
}
layer {
  name: "loss_fastVsBg_03_roc"
  type: "HingeLoss"
  propagate_down: false
  propagate_down: false
  bottom: "ip5_fastVsBg_03_roc"
  bottom: "label_roc"
#  top: "loss_fastVsBg_03_roc"
}
layer {
  name: "ip5_fastVsBg_04_roc"
  type: "Convolution"
  bottom: "pool4_roc"
  top: "ip5_fastVsBg_04_roc"
  param {
    name: "ip5_fastVsBg_04_w"
    lr_mult: 0.1
    decay_mult: 1000
  }
  param {
    name: "ip5_fastVsBg_04_b"
    lr_mult: 0.2
    decay_mult: 0
  }
  convolution_param {
    num_output: 2
    kernel_size: 1
    weight_filler {
      type: "gaussian"
      std: 0.01
    }
    bias_filler {
      type: "constant"
      value: 0
    }
  }
}
layer {
  name: "loss_fastVsBg_04_roc"
  type: "HingeLoss"
  propagate_down: false
  propagate_down: false
  bottom: "ip5_fastVsBg_04_roc"
  bottom: "label_roc"
#  top: "loss_fastVsBg_04_roc"
}
layer {
  name: "ip5_fastVsBg_05_roc"
  type: "Convolution"
  bottom: "pool4_roc"
  top: "ip5_fastVsBg_05_roc"
  param {
    name: "ip5_fastVsBg_05_w"
    lr_mult: 0.1
    decay_mult: 1000
  }
  param {
    name: "ip5_fastVsBg_05_b"
    lr_mult: 0.2
    decay_mult: 0
  }
  convolution_param {
    num_output: 2
    kernel_size: 1
    weight_filler {
      type: "gaussian"
      std: 0.01
    }
    bias_filler {
      type: "constant"
      value: 0
    }
  }
}
layer {
  name: "loss_fastVsBg_05_roc"
  type: "HingeLoss"
  propagate_down: false
  propagate_down: false
  bottom: "ip5_fastVsBg_05_roc"
  bottom: "label_roc"
#  top: "loss_fastVsBg_05_roc"
}
layer {
  name: "ip5_fastVsBg_06_roc"
  type: "Convolution"
  bottom: "pool4_roc"
  top: "ip5_fastVsBg_06_roc"
  param {
    name: "ip5_fastVsBg_06_w"
    lr_mult: 0.1
    decay_mult: 1000
  }
  param {
    name: "ip5_fastVsBg_06_b"
    lr_mult: 0.2
    decay_mult: 0
  }
  convolution_param {
    num_output: 2
    kernel_size: 1
    weight_filler {
      type: "gaussian"
      std: 0.01
    }
    bias_filler {
      type: "constant"
      value: 0
    }
  }
}
layer {
  name: "loss_fastVsBg_06_roc"
  type: "HingeLoss"
  propagate_down: false
  propagate_down: false
  bottom: "ip5_fastVsBg_06_roc"
  bottom: "label_roc"
#  top: "loss_fastVsBg_06_roc"
}
layer {
  name: "ip5_fastVsBg_07_roc"
  type: "Convolution"
  bottom: "pool4_roc"
  top: "ip5_fastVsBg_07_roc"
  param {
    name: "ip5_fastVsBg_07_w"
    lr_mult: 0.1
    decay_mult: 1000
  }
  param {
    name: "ip5_fastVsBg_07_b"
    lr_mult: 0.2
    decay_mult: 0
  }
  convolution_param {
    num_output: 2
    kernel_size: 1
    weight_filler {
      type: "gaussian"
      std: 0.01
    }
    bias_filler {
      type: "constant"
      value: 0
    }
  }
}
layer {
  name: "loss_fastVsBg_07_roc"
  type: "HingeLoss"
  propagate_down: false
  propagate_down: false
  bottom: "ip5_fastVsBg_07_roc"
  bottom: "label_roc"
#  top: "loss_fastVsBg_07_roc"
}
layer {
  name: "ip5_fastVsBg_08_roc"
  type: "Convolution"
  bottom: "pool4_roc"
  top: "ip5_fastVsBg_08_roc"
  param {
    name: "ip5_fastVsBg_08_w"
    lr_mult: 0.1
    decay_mult: 1000
  }
  param {
    name: "ip5_fastVsBg_08_b"
    lr_mult: 0.2
    decay_mult: 0
  }
  convolution_param {
    num_output: 2
    kernel_size: 1
    weight_filler {
      type: "gaussian"
      std: 0.01
    }
    bias_filler {
      type: "constant"
      value: 0
    }
  }
}
layer {
  name: "loss_fastVsBg_08_roc"
  type: "HingeLoss"
  propagate_down: false
  propagate_down: false
  bottom: "ip5_fastVsBg_08_roc"
  bottom: "label_roc"
#  top: "loss_fastVsBg_08_roc"
}
layer {
  name: "ip5_fastVsBg_09_roc"
  type: "Convolution"
  bottom: "pool4_roc"
  top: "ip5_fastVsBg_09_roc"
  param {
    name: "ip5_fastVsBg_09_w"
    lr_mult: 0.1
    decay_mult: 1000
  }
  param {
    name: "ip5_fastVsBg_09_b"
    lr_mult: 0.2
    decay_mult: 0
  }
  convolution_param {
    num_output: 2
    kernel_size: 1
    weight_filler {
      type: "gaussian"
      std: 0.01
    }
    bias_filler {
      type: "constant"
      value: 0
    }
  }
}
layer {
  name: "loss_fastVsBg_09_roc"
  type: "HingeLoss"
  propagate_down: false
  propagate_down: false
  bottom: "ip5_fastVsBg_09_roc"
  bottom: "label_roc"
#  top: "loss_fastVsBg_09_roc"
}
layer {
  name: "ip5_fastVsBg_10_roc"
  type: "Convolution"
  bottom: "pool4_roc"
  top: "ip5_fastVsBg_10_roc"
  param {
    name: "ip5_fastVsBg_10_w"
    lr_mult: 0.1
    decay_mult: 1000
  }
  param {
    name: "ip5_fastVsBg_10_b"
    lr_mult: 0.2
    decay_mult: 0
  }
  convolution_param {
    num_output: 2
    kernel_size: 1
    weight_filler {
      type: "gaussian"
      std: 0.01
    }
    bias_filler {
      type: "constant"
      value: 0
    }
  }
}
layer {
  name: "loss_fastVsBg_10_roc"
  type: "HingeLoss"
  propagate_down: false
  propagate_down: false
  bottom: "ip5_fastVsBg_10_roc"
  bottom: "label_roc"
#  top: "loss_fastVsBg_10_roc"
}
layer {
  name: "ip5_fastVsBg_11_roc"
  type: "Convolution"
  bottom: "pool4_roc"
  top: "ip5_fastVsBg_11_roc"
  param {
    name: "ip5_fastVsBg_11_w"
    lr_mult: 0.1
    decay_mult: 1000
  }
  param {
    name: "ip5_fastVsBg_11_b"
    lr_mult: 0.2
    decay_mult: 0
  }
  convolution_param {
    num_output: 2
    kernel_size: 1
    weight_filler {
      type: "gaussian"
      std: 0.01
    }
    bias_filler {
      type: "constant"
      value: 0
    }
  }
}
layer {
  name: "loss_fastVsBg_11_roc"
  type: "HingeLoss"
  propagate_down: false
  propagate_down: false
  bottom: "ip5_fastVsBg_11_roc"
  bottom: "label_roc"
#  top: "loss_fastVsBg_11_roc"
}
layer {
  name: "ip5_fastVsBg_12_roc"
  type: "Convolution"
  bottom: "pool4_roc"
  top: "ip5_fastVsBg_12_roc"
  param {
    name: "ip5_fastVsBg_12_w"
    lr_mult: 0.1
    decay_mult: 1000
  }
  param {
    name: "ip5_fastVsBg_12_b"
    lr_mult: 0.2
    decay_mult: 0
  }
  convolution_param {
    num_output: 2
    kernel_size: 1
    weight_filler {
      type: "gaussian"
      std: 0.01
    }
    bias_filler {
      type: "constant"
      value: 0
    }
  }
}
layer {
  name: "loss_fastVsBg_12_roc"
  type: "HingeLoss"
  propagate_down: false
  propagate_down: false
  bottom: "ip5_fastVsBg_12_roc"
  bottom: "label_roc"
#  top: "loss_fastVsBg_12_roc"
}
layer {
  name: "ip5_fastVsBg_13_roc"
  type: "Convolution"
  bottom: "pool4_roc"
  top: "ip5_fastVsBg_13_roc"
  param {
    name: "ip5_fastVsBg_13_w"
    lr_mult: 0.1
    decay_mult: 1000
  }
  param {
    name: "ip5_fastVsBg_13_b"
    lr_mult: 0.2
    decay_mult: 0
  }
  convolution_param {
    num_output: 2
    kernel_size: 1
    weight_filler {
      type: "gaussian"
      std: 0.01
    }
    bias_filler {
      type: "constant"
      value: 0
    }
  }
}
layer {
  name: "loss_fastVsBg_13_roc"
  type: "HingeLoss"
  propagate_down: false
  propagate_down: false
  bottom: "ip5_fastVsBg_13_roc"
  bottom: "label_roc"
#  top: "loss_fastVsBg_13_roc"
}
layer {
  name: "ip5_fastVsBg_14_roc"
  type: "Convolution"
  bottom: "pool4_roc"
  top: "ip5_fastVsBg_14_roc"
  param {
    name: "ip5_fastVsBg_14_w"
    lr_mult: 0.1
    decay_mult: 1000
  }
  param {
    name: "ip5_fastVsBg_14_b"
    lr_mult: 0.2
    decay_mult: 0
  }
  convolution_param {
    num_output: 2
    kernel_size: 1
    weight_filler {
      type: "gaussian"
      std: 0.01
    }
    bias_filler {
      type: "constant"
      value: 0
    }
  }
}
layer {
  name: "loss_fastVsBg_14_roc"
  type: "HingeLoss"
  propagate_down: false
  propagate_down: false
  bottom: "ip5_fastVsBg_14_roc"
  bottom: "label_roc"
#  top: "loss_fastVsBg_14_roc"
}
layer {
  name: "ip5_fastVsBg_15_roc"
  type: "Convolution"
  bottom: "pool4_roc"
  top: "ip5_fastVsBg_15_roc"
  param {
    name: "ip5_fastVsBg_15_w"
    lr_mult: 0.1
    decay_mult: 1000
  }
  param {
    name: "ip5_fastVsBg_15_b"
    lr_mult: 0.2
    decay_mult: 0
  }
  convolution_param {
    num_output: 2
    kernel_size: 1
    weight_filler {
      type: "gaussian"
      std: 0.01
    }
    bias_filler {
      type: "constant"
      value: 0
    }
  }
}
layer {
  name: "loss_fastVsBg_15_roc"
  type: "HingeLoss"
  propagate_down: false
  propagate_down: false
  bottom: "ip5_fastVsBg_15_roc"
  bottom: "label_roc"
#  top: "loss_fastVsBg_15_roc"
}
layer {
  name: "ip5_fastVsFast_00_roc"
  type: "Convolution"
  bottom: "pool4_roc"
  top: "ip5_fastVsFast_00_roc"
  param {
    name: "ip5_fastVsFast_00_w"
    lr_mult: 0.1
    decay_mult: 1000
  }
  param {
    name: "ip5_fastVsFast_00_b"
    lr_mult: 0.2
    decay_mult: 0
  }
  convolution_param {
    num_output: 2
    kernel_size: 1
    weight_filler {
      type: "gaussian"
      std: 0.01
    }
    bias_filler {
      type: "constant"
      value: 0
    }
  }
}
layer {
  name: "loss_fastVsFast_00_roc"
  type: "HingeLoss"
  propagate_down: false
  propagate_down: false
  bottom: "ip5_fastVsFast_00_roc"
  bottom: "label_roc"
#  top: "loss_fastVsFast_00_roc"
}
layer {
  name: "ip5_fastVsFast_01_roc"
  type: "Convolution"
  bottom: "pool4_roc"
  top: "ip5_fastVsFast_01_roc"
  param {
    name: "ip5_fastVsFast_01_w"
    lr_mult: 0.1
    decay_mult: 1000
  }
  param {
    name: "ip5_fastVsFast_01_b"
    lr_mult: 0.2
    decay_mult: 0
  }
  convolution_param {
    num_output: 2
    kernel_size: 1
    weight_filler {
      type: "gaussian"
      std: 0.01
    }
    bias_filler {
      type: "constant"
      value: 0
    }
  }
}
layer {
  name: "loss_fastVsFast_01_roc"
  type: "HingeLoss"
  propagate_down: false
  propagate_down: false
  bottom: "ip5_fastVsFast_01_roc"
  bottom: "label_roc"
#  top: "loss_fastVsFast_01_roc"
}
layer {
  name: "ip5_fastVsFast_02_roc"
  type: "Convolution"
  bottom: "pool4_roc"
  top: "ip5_fastVsFast_02_roc"
  param {
    name: "ip5_fastVsFast_02_w"
    lr_mult: 0.1
    decay_mult: 1000
  }
  param {
    name: "ip5_fastVsFast_02_b"
    lr_mult: 0.2
    decay_mult: 0
  }
  convolution_param {
    num_output: 2
    kernel_size: 1
    weight_filler {
      type: "gaussian"
      std: 0.01
    }
    bias_filler {
      type: "constant"
      value: 0
    }
  }
}
layer {
  name: "loss_fastVsFast_02_roc"
  type: "HingeLoss"
  propagate_down: false
  propagate_down: false
  bottom: "ip5_fastVsFast_02_roc"
  bottom: "label_roc"
#  top: "loss_fastVsFast_02_roc"
}
layer {
  name: "ip5_fastVsFast_03_roc"
  type: "Convolution"
  bottom: "pool4_roc"
  top: "ip5_fastVsFast_03_roc"
  param {
    name: "ip5_fastVsFast_03_w"
    lr_mult: 0.1
    decay_mult: 1000
  }
  param {
    name: "ip5_fastVsFast_03_b"
    lr_mult: 0.2
    decay_mult: 0
  }
  convolution_param {
    num_output: 2
    kernel_size: 1
    weight_filler {
      type: "gaussian"
      std: 0.01
    }
    bias_filler {
      type: "constant"
      value: 0
    }
  }
}
layer {
  name: "loss_fastVsFast_03_roc"
  type: "HingeLoss"
  propagate_down: false
  propagate_down: false
  bottom: "ip5_fastVsFast_03_roc"
  bottom: "label_roc"
#  top: "loss_fastVsFast_03_roc"
}
layer {
  name: "ip5_fastVsFast_04_roc"
  type: "Convolution"
  bottom: "pool4_roc"
  top: "ip5_fastVsFast_04_roc"
  param {
    name: "ip5_fastVsFast_04_w"
    lr_mult: 0.1
    decay_mult: 1000
  }
  param {
    name: "ip5_fastVsFast_04_b"
    lr_mult: 0.2
    decay_mult: 0
  }
  convolution_param {
    num_output: 2
    kernel_size: 1
    weight_filler {
      type: "gaussian"
      std: 0.01
    }
    bias_filler {
      type: "constant"
      value: 0
    }
  }
}
layer {
  name: "loss_fastVsFast_04_roc"
  type: "HingeLoss"
  propagate_down: false
  propagate_down: false
  bottom: "ip5_fastVsFast_04_roc"
  bottom: "label_roc"
#  top: "loss_fastVsFast_04_roc"
}
layer {
  name: "ip5_fastVsFast_05_roc"
  type: "Convolution"
  bottom: "pool4_roc"
  top: "ip5_fastVsFast_05_roc"
  param {
    name: "ip5_fastVsFast_05_w"
    lr_mult: 0.1
    decay_mult: 1000
  }
  param {
    name: "ip5_fastVsFast_05_b"
    lr_mult: 0.2
    decay_mult: 0
  }
  convolution_param {
    num_output: 2
    kernel_size: 1
    weight_filler {
      type: "gaussian"
      std: 0.01
    }
    bias_filler {
      type: "constant"
      value: 0
    }
  }
}
layer {
  name: "loss_fastVsFast_05_roc"
  type: "HingeLoss"
  propagate_down: false
  propagate_down: false
  bottom: "ip5_fastVsFast_05_roc"
  bottom: "label_roc"
#  top: "loss_fastVsFast_05_roc"
}
layer {
  name: "ip5_fastVsFast_06_roc"
  type: "Convolution"
  bottom: "pool4_roc"
  top: "ip5_fastVsFast_06_roc"
  param {
    name: "ip5_fastVsFast_06_w"
    lr_mult: 0.1
    decay_mult: 1000
  }
  param {
    name: "ip5_fastVsFast_06_b"
    lr_mult: 0.2
    decay_mult: 0
  }
  convolution_param {
    num_output: 2
    kernel_size: 1
    weight_filler {
      type: "gaussian"
      std: 0.01
    }
    bias_filler {
      type: "constant"
      value: 0
    }
  }
}
layer {
  name: "loss_fastVsFast_06_roc"
  type: "HingeLoss"
  propagate_down: false
  propagate_down: false
  bottom: "ip5_fastVsFast_06_roc"
  bottom: "label_roc"
#  top: "loss_fastVsFast_06_roc"
}
layer {
  name: "ip5_fastVsFast_07_roc"
  type: "Convolution"
  bottom: "pool4_roc"
  top: "ip5_fastVsFast_07_roc"
  param {
    name: "ip5_fastVsFast_07_w"
    lr_mult: 0.1
    decay_mult: 1000
  }
  param {
    name: "ip5_fastVsFast_07_b"
    lr_mult: 0.2
    decay_mult: 0
  }
  convolution_param {
    num_output: 2
    kernel_size: 1
    weight_filler {
      type: "gaussian"
      std: 0.01
    }
    bias_filler {
      type: "constant"
      value: 0
    }
  }
}
layer {
  name: "loss_fastVsFast_07_roc"
  type: "HingeLoss"
  propagate_down: false
  propagate_down: false
  bottom: "ip5_fastVsFast_07_roc"
  bottom: "label_roc"
#  top: "loss_fastVsFast_07_roc"
}
layer {
  name: "ip5_fastVsFast_08_roc"
  type: "Convolution"
  bottom: "pool4_roc"
  top: "ip5_fastVsFast_08_roc"
  param {
    name: "ip5_fastVsFast_08_w"
    lr_mult: 0.1
    decay_mult: 1000
  }
  param {
    name: "ip5_fastVsFast_08_b"
    lr_mult: 0.2
    decay_mult: 0
  }
  convolution_param {
    num_output: 2
    kernel_size: 1
    weight_filler {
      type: "gaussian"
      std: 0.01
    }
    bias_filler {
      type: "constant"
      value: 0
    }
  }
}
layer {
  name: "loss_fastVsFast_08_roc"
  type: "HingeLoss"
  propagate_down: false
  propagate_down: false
  bottom: "ip5_fastVsFast_08_roc"
  bottom: "label_roc"
#  top: "loss_fastVsFast_08_roc"
}
layer {
  name: "ip5_fastVsFast_09_roc"
  type: "Convolution"
  bottom: "pool4_roc"
  top: "ip5_fastVsFast_09_roc"
  param {
    name: "ip5_fastVsFast_09_w"
    lr_mult: 0.1
    decay_mult: 1000
  }
  param {
    name: "ip5_fastVsFast_09_b"
    lr_mult: 0.2
    decay_mult: 0
  }
  convolution_param {
    num_output: 2
    kernel_size: 1
    weight_filler {
      type: "gaussian"
      std: 0.01
    }
    bias_filler {
      type: "constant"
      value: 0
    }
  }
}
layer {
  name: "loss_fastVsFast_09_roc"
  type: "HingeLoss"
  propagate_down: false
  propagate_down: false
  bottom: "ip5_fastVsFast_09_roc"
  bottom: "label_roc"
#  top: "loss_fastVsFast_09_roc"
}
layer {
  name: "ip5_fastVsFast_10_roc"
  type: "Convolution"
  bottom: "pool4_roc"
  top: "ip5_fastVsFast_10_roc"
  param {
    name: "ip5_fastVsFast_10_w"
    lr_mult: 0.1
    decay_mult: 1000
  }
  param {
    name: "ip5_fastVsFast_10_b"
    lr_mult: 0.2
    decay_mult: 0
  }
  convolution_param {
    num_output: 2
    kernel_size: 1
    weight_filler {
      type: "gaussian"
      std: 0.01
    }
    bias_filler {
      type: "constant"
      value: 0
    }
  }
}
layer {
  name: "loss_fastVsFast_10_roc"
  type: "HingeLoss"
  propagate_down: false
  propagate_down: false
  bottom: "ip5_fastVsFast_10_roc"
  bottom: "label_roc"
#  top: "loss_fastVsFast_10_roc"
}
layer {
  name: "ip5_fastVsFast_11_roc"
  type: "Convolution"
  bottom: "pool4_roc"
  top: "ip5_fastVsFast_11_roc"
  param {
    name: "ip5_fastVsFast_11_w"
    lr_mult: 0.1
    decay_mult: 1000
  }
  param {
    name: "ip5_fastVsFast_11_b"
    lr_mult: 0.2
    decay_mult: 0
  }
  convolution_param {
    num_output: 2
    kernel_size: 1
    weight_filler {
      type: "gaussian"
      std: 0.01
    }
    bias_filler {
      type: "constant"
      value: 0
    }
  }
}
layer {
  name: "loss_fastVsFast_11_roc"
  type: "HingeLoss"
  propagate_down: false
  propagate_down: false
  bottom: "ip5_fastVsFast_11_roc"
  bottom: "label_roc"
#  top: "loss_fastVsFast_11_roc"
}
layer {
  name: "ip5_fastVsFast_12_roc"
  type: "Convolution"
  bottom: "pool4_roc"
  top: "ip5_fastVsFast_12_roc"
  param {
    name: "ip5_fastVsFast_12_w"
    lr_mult: 0.1
    decay_mult: 1000
  }
  param {
    name: "ip5_fastVsFast_12_b"
    lr_mult: 0.2
    decay_mult: 0
  }
  convolution_param {
    num_output: 2
    kernel_size: 1
    weight_filler {
      type: "gaussian"
      std: 0.01
    }
    bias_filler {
      type: "constant"
      value: 0
    }
  }
}
layer {
  name: "loss_fastVsFast_12_roc"
  type: "HingeLoss"
  propagate_down: false
  propagate_down: false
  bottom: "ip5_fastVsFast_12_roc"
  bottom: "label_roc"
#  top: "loss_fastVsFast_12_roc"
}
layer {
  name: "ip5_fastVsFast_13_roc"
  type: "Convolution"
  bottom: "pool4_roc"
  top: "ip5_fastVsFast_13_roc"
  param {
    name: "ip5_fastVsFast_13_w"
    lr_mult: 0.1
    decay_mult: 1000
  }
  param {
    name: "ip5_fastVsFast_13_b"
    lr_mult: 0.2
    decay_mult: 0
  }
  convolution_param {
    num_output: 2
    kernel_size: 1
    weight_filler {
      type: "gaussian"
      std: 0.01
    }
    bias_filler {
      type: "constant"
      value: 0
    }
  }
}
layer {
  name: "loss_fastVsFast_13_roc"
  type: "HingeLoss"
  propagate_down: false
  propagate_down: false
  bottom: "ip5_fastVsFast_13_roc"
  bottom: "label_roc"
#  top: "loss_fastVsFast_13_roc"
}
layer {
  name: "ip5_fastVsFast_14_roc"
  type: "Convolution"
  bottom: "pool4_roc"
  top: "ip5_fastVsFast_14_roc"
  param {
    name: "ip5_fastVsFast_14_w"
    lr_mult: 0.1
    decay_mult: 1000
  }
  param {
    name: "ip5_fastVsFast_14_b"
    lr_mult: 0.2
    decay_mult: 0
  }
  convolution_param {
    num_output: 2
    kernel_size: 1
    weight_filler {
      type: "gaussian"
      std: 0.01
    }
    bias_filler {
      type: "constant"
      value: 0
    }
  }
}
layer {
  name: "loss_fastVsFast_14_roc"
  type: "HingeLoss"
  propagate_down: false
  propagate_down: false
  bottom: "ip5_fastVsFast_14_roc"
  bottom: "label_roc"
#  top: "loss_fastVsFast_14_roc"
}
layer {
  name: "ip5_fastVsFast_15_roc"
  type: "Convolution"
  bottom: "pool4_roc"
  top: "ip5_fastVsFast_15_roc"
  param {
    name: "ip5_fastVsFast_15_w"
    lr_mult: 0.1
    decay_mult: 1000
  }
  param {
    name: "ip5_fastVsFast_15_b"
    lr_mult: 0.2
    decay_mult: 0
  }
  convolution_param {
    num_output: 2
    kernel_size: 1
    weight_filler {
      type: "gaussian"
      std: 0.01
    }
    bias_filler {
      type: "constant"
      value: 0
    }
  }
}
layer {
  name: "loss_fastVsFast_15_roc"
  type: "HingeLoss"
  propagate_down: false
  propagate_down: false
  bottom: "ip5_fastVsFast_15_roc"
  bottom: "label_roc"
#  top: "loss_fastVsFast_15_roc"
}
# Custom accuracy layer
layer {
  name: "fastener_roc"
  type: "FastenerRoc"
  bottom: "ip5_fastVsBg_00_roc"
  bottom: "ip5_fastVsBg_01_roc"
  bottom: "ip5_fastVsBg_02_roc"
  bottom: "ip5_fastVsBg_03_roc"
  bottom: "ip5_fastVsBg_04_roc"
  bottom: "ip5_fastVsBg_05_roc"
  bottom: "ip5_fastVsBg_06_roc"
  bottom: "ip5_fastVsBg_07_roc"
  bottom: "ip5_fastVsBg_08_roc"
  bottom: "ip5_fastVsBg_09_roc"
  bottom: "ip5_fastVsBg_10_roc"
  bottom: "ip5_fastVsBg_11_roc"
  bottom: "ip5_fastVsBg_12_roc"
  bottom: "ip5_fastVsBg_13_roc"
  bottom: "ip5_fastVsBg_14_roc"
  bottom: "ip5_fastVsBg_15_roc"
  bottom: "ip5_fastVsFast_00_roc"
  bottom: "ip5_fastVsFast_01_roc"
  bottom: "ip5_fastVsFast_02_roc"
  bottom: "ip5_fastVsFast_03_roc"
  bottom: "ip5_fastVsFast_04_roc"
  bottom: "ip5_fastVsFast_05_roc"
  bottom: "ip5_fastVsFast_06_roc"
  bottom: "ip5_fastVsFast_07_roc"
  bottom: "ip5_fastVsFast_08_roc"
  bottom: "ip5_fastVsFast_09_roc"
  bottom: "ip5_fastVsFast_10_roc"
  bottom: "ip5_fastVsFast_11_roc"
  bottom: "ip5_fastVsFast_12_roc"
  bottom: "ip5_fastVsFast_13_roc"
  bottom: "ip5_fastVsFast_14_roc"
  bottom: "ip5_fastVsFast_15_roc"
  bottom: "label_roc"
  top: "fastener_auc"
  top: "fastener_pd"
  top: "fastener_th"
  fastenerroc_param {
    desired_pfa: 0.01
  }
  include: { phase: TEST }
}
